TrainedModel/Actor.0.pkl (torch, 280584 bytes, 6 tensors)

weight f4 [256, 9]
000000 7a 98 fe b9 83 44 1e 3d 35 1c 84 bd 90 9d b6 be
       -0.0004856026 0.038639557 -0.064506926 -0.35667086
000010 da 45 63 be 8b 2b f5 3d 17 7f 95 be a3 f1 96 3d
       -0.22194615 0.11971196 -0.29198524 0.07370307
000020 aa 4f 77 3e 5f 47 78 3e 20 66 63 3d b6 08 46 bf
       0.24151483 0.24245976 0.055517316 -0.7735704
000030 1d 3b b9 3e 72 16 af 3d 27 76 96 3e d2 9a 07 be
       0.36177912 0.08549203 0.29387018 -0.13242653
000040 e6 fe c6 3e b8 42 a8 be 31 6a fd bd d2 6e 55 3e
       0.38866347 -0.32863402 -0.1237377 0.20843056
000050 cb 8a 81 3e 46 3a c1 3d d0 56 8e 3d 00 31 30 bf
       0.25301203 0.09434943 0.06950152 -0.6882477
000060 02 71 15 bf 24 0a 19 3c 5a ae 75 3e 47 1d 17 bc
       -0.5837556 0.009340797 0.23992291 -0.009223289
000070 6d 76 b1 3c a0 19 ee 3e 52 c1 3e 3f da 30 aa 3d
       0.021662915 0.46503925 0.74513733 0.08310099
000080 59 0a cb bd f6 2c bd be 18 09 e3 38 63 ef 73 be
       -0.09914083 -0.36948365 0.00010825897 -0.23821788
000090 d3 d6 21 3d 9b 55 e5 3e f0 78 88 bc d8 79 c2 be
       0.039511513 0.44791874 -0.01665923 -0.37983584
0000a0 21 65 6c be b4 75 f2 3d a5 db 4e bf 13 b7 18 3e
       -0.23085453 0.11838856 -0.808039 0.14913587
0000b0 fe 2a 0a 3e 65 48 c7 3d 93 18 84 bd 4f 3b 56 bf
       0.13492963 0.09730605 -0.0645 -0.8368425
0000c0 d4 06 93 3e 46 37 4f 3e 70 a1 8a be 7a ad 10 3e
       0.28716147 0.20235929 -0.27076292 0.14128676
0000d0 37 65 98 3d 28 92 69 be aa b7 62 3e 02 3e 44 3c
       0.0744118 -0.2280966 0.22140375 0.011977674
0000e0 2f ad 2d bf e8 35 d8 3c b4 f5 81 bd 64 5c 6b be
       -0.6784238 0.026392892 -0.06345692 -0.22984463
0000f0 9f ad 0c 3e b5 cc 58 bd 86 57 08 3e 54 91 c2 be
       0.13738106 -0.0529296 0.13314638 -0.38001502
000100 15 f5 18 be 04 53 af 3e 72 9a 96 3e fb 41 8b 3e
       -0.14937241 0.34243023 0.29414707 0.27198777
000110 4e 4f 5e 3f 14 72 6c 3e 61 81 15 3f f3 c9 4a be
       0.8683976 0.23090392 0.5840054 -0.198036
000120 53 27 84 bd 00 ba b3 3e c8 d8 2b be e9 87 c2 3d
       -0.06452813 0.35102844 -0.16781914 0.09498579
000130 12 4f d2 be 33 72 47 bf 1f 81 1b 3f f4 da 82 3d
       -0.4107595 -0.7790863 0.607439 0.06389418
000140 8c 10 dc bd 58 2e 6f 3e 04 11 3f 3e 17 7d d2 3d
       -0.107453436 0.23357522 0.18658835 0.10277765
000150 e9 70 97 3e fd b8 8e be ad df e7 3e e1 8f 2c be
       0.2957833 -0.2787551 0.4528784 -0.1685176
000160 15 ae 49 3e 3a d4 09 3e dd 54 77 3e fd 95 5c 3d
       0.19695313 0.13459864 0.24153467 0.053853977
000170 75 ad ad 3f d4 ee a8 3d 92 eb 17 be f4 80 c5 3e
       1.356856 0.08248678 -0.14835957 0.38574946
000180 e2 65 01 3d d9 fc 2a bb 80 c9 e8 3c e9 04 96 be
       0.031591304 -0.002609065 0.028416395 -0.2930062
000190 04 fd 43 bd 82 15 8a bc 19 bf 00 bf 29 18 38 3e
       -0.047848716 -0.016855959 -0.5029159 0.17977966
0001a0 03 ae 45 3c fe d6 6f 3e a5 83 ad 3e 6a fe 3d 3e
       0.012065413 0.23421857 0.338895 0.18554083
0001b0 bf 89 7e bd 27 b7 fc 3e 6c f5 aa be 6d 65 05 3f
       -0.062143084 0.49358484 -0.33390367 0.5210789
0001c0 94 aa b8 3e 6a 32 4c bf bd a6 5f 3c 8a 40 9c be
       0.3606764 -0.79764426 0.013650593 -0.3051799
0001d0 82 cd 89 be 22 ab 34 bd d4 64 c6 3e 34 75 34 bf
       -0.26914603 -0.044108517 0.387488 -0.7049134
0001e0 01 e4 7d 3e 74 91 16 3f 93 bd f6 3c 2c 09 3e 3e
       0.24794008 0.58815694 0.030119693 0.18558186
0001f0 bf d8 fa 3e b3 f7 00 be ee 62 52 be 18 77 b1 bc
       0.4899349 -0.1259449 -0.20545551 -0.021663234
000200 ed 66 08 bc 40 7f dc be e0 57 d1 be 26 d8 a6 3e
       -0.008325321 -0.43065834 -0.40887356 0.32586783
000210 15 76 2d bc 9a fd aa be df 2f 9a be be f0 86 3b
       -0.010587235 -0.33396608 -0.30114648 0.004118054
000220 5f 12 9e 3d b2 07 c1 3e 3e b1 37 be 10 6a 78 3e
       0.07718348 0.37701184 -0.17938706 0.2425921
000230 00 82 70 bf e0 a5 a9 3e 06 38 80 3e 8a b9 67 3e
       -0.93948364 0.33134365 0.25042742 0.22629371
000240 63 18 cc be 0c 00 4e bd b1 37 ff be ba 21 b4 be
       -0.39862356 -0.050293013 -0.49847177 -0.3518198
000250 20 14 57 3c b5 ed 75 3e db c5 ab be 5c c2 2d 3f
       0.013127357 0.2401646 -0.3354939 0.67874694
000260 b0 4a b6 bd 30 8f fe be 79 eb b1 3d ea ef 0f 3f
       -0.08900964 -0.49718618 0.08687491 0.56225455
000270 76 7f 7e bc 78 3e ad be b6 b7 c9 3d 09 4e d2 3e
       -0.015533319 -0.33836722 0.09849493 0.4107516
000280 28 ee 86 3e a8 b8 05 be 40 90 bd be 69 91 bb bd
       0.26353574 -0.13058722 -0.37024117 -0.09158594
000290 cb 23 28 3f e6 94 3a 3e b0 68 c6 3e f0 47 1c 3f
       0.65679616 0.18220863 0.38751745 0.6104727
0002a0 06 91 f2 3e ca 63 93 3e f4 19 ca 3d 74 95 ab 3d
       0.4737627 0.2878707 0.098682314 0.08378115
0002b0 b2 85 35 bd 89 a5 84 bf 23 db 00 bd 3d 96 48 3d
       -0.044316955 -1.0363017 -0.031458985 0.048971403
0002c0 09 61 6b 3e 46 1c fe 3e af e1 67 3d e3 94 99 3e
       0.22986235 0.49630946 0.056611713 0.29996404
0002d0 4f d4 84 3e c0 8d 33 3e 84 9e b0 bd 0c 0e 34 3d
       0.2594323 0.17534542 -0.086239845 0.04395871
0002e0 d4 bf 95 3e 92 c0 55 3e 62 1b 80 3d bb 39 d3 3e
       0.29247916 0.20874241 0.06255223 0.41254982
0002f0 b6 81 fd bd c8 fd 45 3e 55 17 4b bd 6e 95 6f 3d
       -0.12378256 0.19335091 -0.049582798 0.058492117
000300 37 64 5f be ea 45 46 3e 24 89 1c 3e ce 1b 3a be
       -0.21815573 0.19362608 0.1528669 -0.18174669
000310 a1 f9 80 be 82 68 5b 3e ea 06 f8 bd dd 8e f7 3e
       -0.25190452 0.21426585 -0.12110694 0.48351184
000320 8e 0b 23 3f 57 fc 15 be d0 cd 00 3e a4 74 38 3f
       0.63689506 -0.14647041 0.12578511 0.7205298
000330 f2 fb 96 3e 08 ad c1 3e a6 e2 06 3e df 2d 02 3e
       0.29489094 0.37827325 0.13172397 0.12712811
000340 6d 96 95 3e 90 4e 54 3f 5e b6 38 3e 10 c7 4b bd
       0.29216328 0.82932377 0.18038318 -0.049750388
000350 75 e6 a7 be 44 c5 9d bc c9 7b 9e be 0a 66 87 be
       -0.32793012 -0.019259103 -0.30953816 -0.26445037
000360 ae 25 9a 3d b9 33 6a 3d fd 38 11 bf 83 dc a4 be
       0.07526718 0.057178233 -0.5672758 -0.32199487
000370 a5 c4 99 3e 09 2c 18 bf 5d 70 74 3e c0 31 14 3d
       0.3003284 -0.5944219 0.23870988 0.036180258
000380 9c bb 87 3d d9 40 b7 3d 08 5a 48 3e 6b 28 a0 3e
       0.066275805 0.089479156 0.19565594 0.31280836
000390 6c f8 81 bd 26 d7 93 3e 97 14 e3 bd c0 f1 b8 3d
       -0.06346211 0.28875083 -0.110879116 0.09030485
0003a0 66 7c a7 be ae ba 57 3e eb ad b4 be b7 02 20 be
       -0.32712096 0.21067306 -0.3528894 -0.15626036
0003b0 a0 93 98 3e 69 32 d8 be 3f b3 3a be 58 45 a7 3e
       0.2980013 -0.4222596 -0.1823244 0.32670093
0003c0 f1 f9 1d 3f 0a 95 1a 3f b6 1c 76 3e c6 09 66 bb
       0.61709505 0.60383666 0.2403439 -0.003510104
0003d0 2b 61 d2 bc 1a 5d e9 3e c3 b7 d7 be 89 00 82 3d
       -0.025681099 0.45578843 -0.42132387 0.06347758
0003e0 53 ac 07 bd b8 50 82 3d aa 0a 08 3e b5 45 94 3e
       -0.033123326 0.06363052 0.13285318 0.28959432
0003f0 40 c2 81 3d 56 f2 d5 bd bd d8 93 3e d0 76 85 3e
       0.06335878 -0.104466125 0.28876296 0.2606721

bias f4 [256]
000000 ac de 8e 3e e2 9b f4 3c af 5a 22 3f 61 fa a9 3d
       0.2790426 0.029859487 0.6341962 0.08299709
000010 85 e4 a0 be a9 a8 c0 3d e8 79 05 3e d8 ec 84 3e
       -0.31424347 0.09407169 0.13034785 0.25961947
000020 be 67 dd bd b5 ca 11 bd f4 48 b3 be cc 58 92 be
       -0.10810803 -0.035593707 -0.35016596 -0.28583372
000030 f2 84 14 be c7 c8 a8 3d 78 48 d3 bd 8d ff 04 3f
       -0.1450384 0.0824142 -0.10316557 0.5195244
000040 a3 a1 94 bc 3c f1 d1 3e ff 69 24 be d6 db 85 be
       -0.01814348 0.4100436 -0.1605606 -0.26144284
000050 96 5a c5 3e 3e ea 60 be 76 c1 27 3e 85 a1 28 be
       0.38545674 -0.21964356 0.16382393 -0.16467865
000060 97 f3 8e 3e f0 41 56 be 4f 1b ff bd ab 30 cb 3e
       0.2792022 -0.2092359 -0.124563806 0.39685568
000070 c9 12 33 3e 69 4c ac bd b0 cf be 3e a1 6b 9c bd
       0.17487635 -0.084130116 0.37267828 -0.07637716
000080 43 9d 3b be c4 29 0e bc cc 31 90 3d ae 16 ae 3c
       -0.1832171 -0.00867695 0.07040748 0.021251049
000090 ce f8 37 3e 8e 14 b9 3e c4 73 2f be 95 81 46 be
       0.17966005 0.36148494 -0.17134005 -0.19385369
0000a0 34 26 03 bf eb 96 db 3e 0f 41 8b 3e c7 ba df 3d
       -0.5123017 0.4288858 0.27198073 0.10924297
0000b0 ae 62 e5 3e 5c a9 6c 3c a0 82 0d be 52 6a d0 3e
       0.4480185 0.014444675 -0.1381936 0.40706116
0000c0 f4 25 98 3e fe 11 3a be e5 d9 9e 3e b1 f8 84 be
       0.29716456 -0.18170926 0.31025615 -0.25970986
0000d0 9d a6 b9 3e c8 9d 09 3e d7 40 ef be f7 5c c8 bd
       0.36259928 0.13439095 -0.46729156 -0.09783357
0000e0 16 89 1c be 7d a6 7f bd 1b bf a8 be 50 e9 3a be
       -0.15286669 -0.062414635 -0.32958302 -0.18253064
0000f0 25 0c 28 bd e6 e4 4b bd fa e6 c7 3e 9e 2f aa bd
       -0.041027207 -0.04977884 0.3904341 -0.083098635
000100 cd 7c 99 be 2b e3 0c bf da 26 f2 be c1 77 b3 be
       -0.29978028 -0.5503413 -0.47295266 -0.35052302
000110 ed a7 8c be 11 d8 0d 3f b5 cd 8f be c7 71 57 3d
       -0.27471867 0.55407816 -0.2808663 0.05259874
000120 0d 28 67 3e f5 28 93 be c4 91 be be ee 1c 9c bd
       0.22573872 -0.28742185 -0.37220585 -0.076227054
000130 62 dd 42 bd 07 30 80 3d 62 a3 08 bf 61 36 a4 be
       -0.04757441 0.062591605 -0.533743 -0.32072738
000140 19 77 b0 3e 89 23 9e bc cd c2 55 3e 49 36 0f be
       0.34465864 -0.019304054 0.20875092 -0.13985552
000150 33 a7 a3 bd ba df df be 10 62 35 3d b6 a9 95 be
       -0.07990875 -0.43725377 0.044282973 -0.29231042
000160 a5 cc 95 3d 31 5e f0 3d 11 8c 1b be 18 b2 d7 be
       0.073144235 0.117367156 -0.1519015 -0.42128062
000170 20 56 a9 3e fb 62 c9 be bc e0 f4 bd 03 9f 51 be
       0.3307352 -0.3933333 -0.11956927 -0.20470814
000180 d7 7f 81 be 35 0a 03 bd 57 48 e2 be 88 83 d0 be
       -0.25292847 -0.031992156 -0.44195816 -0.4072535
000190 ee 85 a8 be c6 22 cf bd 7c 5e 8e bd 81 e2 77 be
       -0.3291468 -0.101140544 -0.06951615 -0.24207498
0001a0 a7 73 ac 3d e4 9b 6a 3d a3 33 0a 3e f5 5a 95 3e
       0.084204964 0.057277575 0.1349626 0.29170957
0001b0 84 06 8a 3e ab dc d6 bd d0 83 9e 3d 4f c1 f8 bd
       0.26958096 -0.10491308 0.07739985 -0.12146246
0001c0 58 82 db bd 7c d0 e0 be 31 46 b2 bd df 6a 02 3f
       -0.107182205 -0.4390906 -0.08704794 0.5094432
0001d0 a1 69 08 be 69 d8 17 be 53 b8 e2 3e f0 0e 57 be
       -0.13321544 -0.14828648 0.44281253 -0.21001792
0001e0 51 e6 87 be 01 e7 04 bb 76 54 a9 be 35 7f 2b 3e
       -0.26542905 -0.002027929 -0.3307225 0.16747744
0001f0 ea af 81 3b 57 15 f8 bd f3 e6 c6 be 4f 5f f3 be
       0.003957738 -0.12113445 -0.38848075 -0.47533652
000200 81 31 cd be db 14 20 be 3d 3d af bd ba 0a 82 be
       -0.4007683 -0.15632956 -0.08556602 -0.2539881
000210 db b1 80 be 15 e5 c6 bd 92 f3 44 3e 7a cc 96 3e
       -0.25135693 -0.09711663 0.1923354 0.29452878
000220 6e b4 a5 3e 45 e8 3d be df de 0b be c8 3c ee 3c
       0.3236422 -0.18545635 -0.13659237 0.029081717
000230 ba 64 22 be 10 5f c4 be b6 f3 84 be e0 71 a1 be
       -0.15858737 -0.38353777 -0.25967187 -0.31532192
000240 a9 40 4b be 46 14 d7 3e f8 25 cd 3a c8 b9 2e 3d
       -0.19848885 0.42007655 0.0015651574 0.042657644
000250 7c 52 d8 bd 33 f7 db be 01 f5 5c 3e 46 26 14 bd
       -0.10562608 -0.42962036 0.21577837 -0.036169313
000260 75 7c 68 bd b8 bb 53 3e ca 18 10 3e 61 74 18 bd
       -0.056759316 0.20677078 0.14071956 -0.037220363
000270 78 de 57 3d 11 5e ef bd 01 54 af be cf 6f 8e be
       0.052702397 -0.116878636 -0.34243777 -0.27819678
000280 e3 de 21 be e0 36 8a bd 86 82 a1 be 34 63 b4 3d
       -0.15807681 -0.06748748 -0.31544894 0.08807984
000290 51 32 59 3e f6 4a ab be e4 21 45 be d9 d0 26 be
       0.212106 -0.33455628 -0.1925121 -0.16290607
0002a0 2e 27 ef be da 46 8a bc 6c d3 74 be d6 ae 45 3d
       -0.4670958 -0.016879488 -0.23908776 0.04826244
0002b0 0a d6 86 3e e6 9f 12 be 20 3c 60 be a6 be 92 be
       0.26335174 -0.14318809 -0.21897936 -0.28661078
0002c0 3e 7f 1a 3d 7e 93 05 bf de 56 44 3e 0a fd 83 be
       0.037719004 -0.5217818 0.19173762 -0.2577899
0002d0 ca e3 ad be e1 85 cb 3c cf e0 83 3d e0 db 1e be
       -0.33962852 0.024844112 0.06439363 -0.15513563
0002e0 fe 06 0d bf a2 b6 76 3e 36 f0 88 bc c3 71 12 be
       -0.55088794 0.24093106 -0.016716104 -0.14301209
0002f0 49 73 e4 3d 36 fb 55 3e ec 3f e2 be f6 f4 2e bd
       0.111548014 0.2089661 -0.44189394 -0.04271408
000300 d0 eb ac 3e 8c 57 a5 be b6 91 68 3e 0e d0 14 bf
       0.3377366 -0.32293355 0.22711834 -0.58129966
000310 ae f4 b1 3e 99 08 28 bc e7 76 01 3d 65 4d 98 3e
       0.34756988 -0.010255956 0.031607535 0.29746547
000320 45 62 1c be 78 e4 bb 3e de ad cc bd 57 0c 61 bd
       -0.15271862 0.36697745 -0.099941 -0.05494341
000330 8f d3 f7 3b 74 9e c7 be 42 a8 86 bd 87 28 4d 3e
       0.0075630615 -0.38988078 -0.065750614 0.20034991
000340 5d fd e1 bd 98 da 1a be 18 da a6 be bf 51 a2 3e
       -0.11034653 -0.1512245 -0.32588267 0.31702992
000350 da be 57 3e f5 25 e0 3d ec d1 15 bf 13 63 96 3e
       0.21068898 0.1094474 -0.5852344 0.29372463
000360 c7 e0 c1 3b 01 f8 9b be 35 61 81 3e c3 4a cc 3e
       0.005916688 -0.3046265 0.25269476 0.3990079
000370 24 ab 13 be 4f 6f 3d bc 87 69 b6 3e e7 ae 40 be
       -0.14420754 -0.011562183 0.35627386 -0.1881672
000380 2c 8e 9f bc 0e 1d db 3d 90 4b e2 bc e1 e0 e7 bd
       -0.019476973 0.10698901 -0.027623922 -0.11322189
000390 8e 38 88 be 41 7d 85 3e 35 4b 88 3d 31 f5 b8 3d
       -0.26605648 0.26072124 0.066549696 0.090311415
0003a0 7e 2c 2a bd e8 0d aa be b7 c4 cd bc 1d 79 08 bf
       -0.041546337 -0.33213735 -0.025118215 -0.53309804
0003b0 4a 50 54 3e eb f2 08 3e 79 71 08 3e a2 12 95 3e
       0.20733753 0.13373916 0.13324536 0.29115778
0003c0 67 8b 16 3d 81 c6 fc bd 10 0f 36 be ef c8 69 be
       0.03675404 -0.12342549 -0.17779183 -0.22830556
0003d0 55 65 47 3e a7 ac bc be 43 97 d3 bd dc 16 9e 3e
       0.19472249 -0.36850473 -0.10331585 0.30876815
0003e0 4c 68 ca 3e ca fc f1 bd 6f 9c a4 3e 55 e3 9d 3d
       0.39532697 -0.11815794 0.321506 0.07709376
0003f0 6f 9b 3e be cf 68 d4 3d 00 86 34 3e a7 f3 a3 bd
       -0.1861398 0.10371553 0.17629242 -0.08005457

weight f4 [256, 256]
000000 1b 83 44 bd a3 a3 a3 bd a8 f8 99 3c cc b0 31 3d
       -0.047976594 -0.079901956 0.018795326 0.043381497
000010 8c d0 b7 bc 57 e1 dd bc 77 5f dd 3c 26 36 1c bd
       -0.02243831 -0.02708499 0.02702306 -0.038137577
000020 00 c1 a9 39 0c 25 06 3d 89 52 7c 3b c2 6a 43 3d
       0.00032377988 0.032750174 0.0038501343 0.047709234
000030 11 14 b4 3c 11 ad 93 bd 4a 51 67 bd 36 85 07 3d
       0.021982225 -0.07210744 -0.056474008 0.033086024
000040 f0 68 ac bc e4 35 35 3d 53 fc 2f bc 8d 25 2c 3c
       -0.021046132 0.044240847 -0.010741311 0.010507
000050 29 96 f6 3c 07 2d 1b bd 56 8a 0a bd d1 9e 1f 3d
       0.030100899 -0.03788474 -0.033823334 0.03896982
000060 09 1b 54 bd 4c 98 71 bd e4 14 7a bd b0 8e 73 3c
       -0.051783595 -0.058983132 -0.06105508 0.014865562
000070 74 01 2e 3d fc 97 9d bc 59 c1 af bd 51 44 5f bd
       0.042481855 -0.01923751 -0.085818 -0.05450851
000080 7e 60 0b bd 73 0f 23 3d 17 c1 64 bc 38 37 ab 3c
       -0.03402757 0.039809655 -0.013962052 0.020900354
000090 7c 52 6e 3b 15 07 cf bc c0 d3 c8 bc 26 cd 6c bd
       0.0036365082 -0.025271932 -0.024515033 -0.057812832
0000a0 fe 08 42 bd 08 ba b0 bd a2 19 a5 3c c6 6e 2a bd
       -0.047371857 -0.08629233 0.020153824 -0.041609548
0000b0 b2 42 bc bc 91 34 87 bd 3d 7d 92 bc 7c 90 34 bd
       -0.022981022 -0.06601823 -0.017881984 -0.044083104
0000c0 31 dc ab 3c 6a 23 42 bd 6b db 88 3c 13 8f f0 bb
       0.020979019 -0.047397055 0.01670619 -0.0073412745
0000d0 92 d2 20 3d 63 60 38 bc 90 68 fc 3b 72 84 9d bd
       0.039263315 -0.011253449 0.0077028945 -0.076912776
0000e0 b0 fc a0 bb b6 c7 16 3d 71 98 9b bc 79 6b 7f bd
       -0.004912935 0.036811553 -0.018993588 -0.062358353
0000f0 1e 43 11 bd aa c5 3f 3d e9 99 45 3c 65 8d 53 bc
       -0.0354644 0.046819367 0.012060621 -0.012912129
000100 07 7c 3f bd e6 c4 f0 bc c4 3d 80 3c 2a 58 17 3d
       -0.04674914 -0.029390763 0.015654452 0.036949314
000110 87 5b 41 3d e0 1d c4 bb be e0 c0 3c dd 58 41 bd
       0.047206428 -0.0059850067 0.023544665 -0.047203887
000120 42 c5 86 bd 52 3d d7 3c 25 1f 01 bd c4 2b 75 bd
       -0.06580593 0.026274357 -0.031523842 -0.05985619
000130 d8 27 58 bc 4e ab 34 bd 20 1e 1c bb 6b 5f ab bd
       -0.013193093 -0.04410868 -0.0023821667 -0.08367809
000140 b7 57 25 bd 2e 58 62 bd f1 cb 33 bd 0a 31 33 bc
       -0.040366855 -0.055259876 -0.043895666 -0.010936985
000150 30 12 2a bc 54 85 4c 3d 7c eb 24 bd f4 37 24 bd
       -0.010380313 0.04993184 -0.040263638 -0.040092424
000160 b5 5a 55 bc af 99 11 bd 92 fc ed bc 3a 1e 59 3d
       -0.0130221145 -0.035546955 -0.029051099 0.053007342
000170 e3 50 7c 3d 83 cd 9c 3c 38 f6 e0 bc 20 0d 27 bb
       0.061600577 0.019140964 -0.027461156 -0.002549
000180 3c 6d 44 3d 46 36 dc bc 76 af d8 3c 18 ac e9 3c
       0.047955737 -0.026881348 0.026450854 0.028524444
000190 96 0b aa bc cd 27 55 bd b2 fc 2f bd af 9e 93 3c
       -0.020757478 -0.05203991 -0.0429656 0.018020002
0001a0 18 6f 19 3d c6 ae 5a bd 16 01 7a bd 06 cf 7a bc
       0.037459463 -0.053389333 -0.061036192 -0.015308147
0001b0 21 6a f8 3c 0b 22 04 bd d4 89 1b 3d ff 18 08 3d
       0.030324044 -0.03225903 0.03797324 0.033226963
0001c0 80 e2 43 bc ec 94 31 3d d6 91 1e bd b6 9c 1b bd
       -0.011955857 0.043354914 -0.0387133 -0.037991248
0001d0 70 e1 25 3c f5 6b 42 bd 14 33 d2 bc dc 49 6c 3d
       0.010124549 -0.047466237 -0.025659122 0.057687625
0001e0 16 84 b3 bc 6a df 4b bd 6c 27 87 bc a2 89 8f 3c
       -0.02191357 -0.04977361 -0.01649829 0.017521683
0001f0 4a 36 73 bd 2c bf 31 bb b3 37 25 3c bc 02 36 bd
       -0.059377946 -0.0027122004 0.0100840805 -0.0444362
000200 95 d4 9a 3b ad 0c a2 bb c7 e3 3f bd 00 90 61 39
       0.004725049 -0.0049453587 -0.046848085 0.00021511316
000210 a0 59 2e 3c 02 61 78 bd 3d de 28 bd ee 0d 33 bc
       0.010641485 -0.06063939 -0.041227568 -0.010928614
000220 5e 21 64 ba 2a d9 6d 3d fe be 2c bd e6 5c e5 bc
       -0.0008702482 0.058068432 -0.04217433 -0.027998399
000230 cc 4b 81 3c f1 a8 b7 bc e0 ad 0e bc 74 dd 8b bb
       0.015783213 -0.022419425 -0.008708447 -0.0042683426
000240 f0 1f d9 bb f7 24 33 bc 1b 34 a8 3c 52 07 19 bd
       -0.0066261217 -0.010934106 0.020532658 -0.037360497
000250 94 9d 15 bd 9b 1e 26 3b 2e 6c 48 bd 47 4a 64 bd
       -0.03652723 0.0025347832 -0.048931293 -0.0557349
000260 0f d6 4a 3c 45 d3 83 bd 81 a1 32 3d 2d 4a b9 bd
       0.012380137 -0.06436781 0.043611053 -0.09047351
000270 90 2f 5e 3c 9c 46 0a bd c0 c2 69 bb 08 a7 76 3d
       0.0135611445 -0.033758745 -0.0035669059 0.060217887
000280 1b 4c 2a 3d 10 55 24 3d b6 67 33 bc ef 87 c4 bc
       0.041576486 0.040120184 -0.01095002 -0.0239906
000290 83 a9 72 3b b0 f7 78 3d 7e e3 12 bd a0 5c 0a bb
       0.0037027306 0.06078309 -0.035861485 -0.0021112338
0002a0 ea b8 68 bd 3f 04 3d 3d 0f 61 a5 bd 7e 62 46 bd
       -0.056816973 0.046146628 -0.08075153 -0.048433773
0002b0 b0 8a 21 bd 93 f7 a5 3c 7d f7 8c 3b 7e 42 d3 39
       -0.039438903 0.020259654 0.004301964 0.00040294597
0002c0 20 2e ee bb f8 5b 7b bc ec 8d db 3c 80 b3 a7 3b
       -0.007268682 -0.015341751 0.026801072 0.0051178336
0002d0 02 e0 6e bd c0 bd 78 3d 8d df b6 bc e3 43 68 bd
       -0.0583191 0.060727835 -0.022323394 -0.056705367
0002e0 50 d8 10 bd b9 15 5c bd fc 9b 93 bc 13 1b 1d 3c
       -0.03536254 -0.053731654 -0.018018715 0.0095889745
0002f0 38 de 5b 3c 78 86 4f 3d cb 19 66 bc 40 4f f0 3a
       0.01341968 0.05066535 -0.014044235 0.0018334165
000300 49 08 f9 bc 11 2b 04 bd 5c 1e d9 bc b2 bd 5b bd
       -0.030399458 -0.032267634 -0.026503734 -0.053647704
000310 98 a2 a8 bd 6b d2 45 bd 55 24 a3 b8 54 e6 a2 bd
       -0.08234137 -0.048296373 -7.779213e-05 -0.07954088
000320 e1 db 32 bd 9a ef 43 bd 1a 19 ec 3b 1b 4d 23 bd
       -0.043666724 -0.047835924 0.007205141 -0.039868455
000330 24 e0 8b bc 20 bd 87 3c d6 d4 2d bc b1 e9 24 3d
       -0.017074652 0.016569674 -0.010609826 0.040261928
000340 e3 05 69 3d 78 24 73 3c 8d 7f 13 3c 27 9c 25 bd
       0.05689038 0.014840238 0.009002578 -0.04043212
000350 2a 1d 67 bd b2 83 1c 3d 60 27 ab bc 16 9a 1b bd
       -0.056424297 0.038211532 -0.020892799 -0.037988745
000360 bc 56 94 bc 1a bb c6 3c 2a 6e 60 bc f1 be 67 bc
       -0.018107764 0.024259139 -0.01369814 -0.014144645
000370 a2 9d 42 3d e0 22 fd 3b 80 52 0d 3a 04 51 ba bd
       0.04751361 0.0077251047 0.00053910166 -0.09097484
000380 75 8a 4e 3d e6 90 69 3d c7 81 de bc f0 af 10 bc
       0.05042501 0.05702295 -0.027161492 -0.008831009
000390 c0 ca f1 3c 0e 1a d8 bc d1 6e fd 3b 19 43 3f bd
       0.029515624 -0.026379611 0.0077341576 -0.04669485
0003a0 18 82 9b bd 5e 46 5b bd 87 71 af bc f8 15 00 bc
       -0.07593173 -0.053533904 -0.021416439 -0.007817738
0003b0 cf 34 5d bc 2b 6c 01 bd 3e a4 c1 3c ca b1 4c bc
       -0.01350136 -0.031597298 0.023637887 -0.01249356
0003c0 d5 4f 17 3d 01 83 83 bc 6f 5c 9b bb 0a ad 25 3d
       0.036941368 -0.016053678 -0.0047412436 0.040448226
0003d0 35 01 a6 bd c0 35 02 bd 30 f9 d3 bc 5c d8 54 bc
       -0.08105699 -0.03178954 -0.025875658 -0.012991037
0003e0 86 23 8c 3c 05 5d 9a bc 23 62 b7 bd 2e 90 f6 bc
       0.017106783 -0.018843183 -0.08954265 -0.030098047
0003f0 a4 b7 56 bd 19 68 97 3c 8d 3a 9c bd f3 50 8d 3c
       -0.052421227 0.018482255 -0.07628355 0.017250514

bias f4 [256]
000000 65 82 96 bd f1 bd 94 3c d7 60 9a bd 9e 34 76 bd
       -0.073490895 0.018156977 -0.07538002 -0.060108773
000010 c3 fb a7 bc 12 49 b2 bc 5a 32 40 3c a0 f6 2d be
       -0.020505792 -0.021763358 0.011730755 -0.16988611
000020 f3 f1 1d 3c ca 9c af 3d e3 38 13 3d 0e 64 69 bb
       0.009640205 0.08574827 0.035942923 -0.0035612616
000030 7f 22 c7 3d 63 93 40 bd 25 e3 d7 bd 5b f4 9c bd
       0.097233765 -0.04701556 -0.10541371 -0.076637946
000040 08 48 1e bd e4 6d cd bc 93 24 57 3d 5a 92 af 3a
       -0.038642913 -0.025076814 0.052525114 0.0013395057
000050 e9 ed 47 bd 37 ff e2 bc b2 21 1c 3d b9 fe 2a 3e
       -0.048810873 -0.027709587 0.03811807 0.16698731
000060 51 1d 63 3d 60 2e b7 3c 46 33 d7 bd 58 f6 5e bd
       0.05544788 0.02236098 -0.105078265 -0.05443415
000070 71 9f 5f bb 0b 42 80 ba eb 76 bb 3d 37 d3 3f 3d
       -0.0034122134 -0.0009785307 0.09153541 0.04683229
000080 cd d7 31 bd fc e3 94 bb cb 7d 47 3d 37 4c 56 3d
       -0.043418694 -0.0045437794 0.04870395 0.052318778
000090 8b 13 dc 3a 4c 6c 8c 3d 35 1c 69 bd e7 b4 90 3e
       0.0016790492 0.068565935 -0.056911666 0.28263018
0000a0 08 b2 10 3d ef 84 12 bc b2 f8 65 bc c6 5e 77 bc
       0.035326034 -0.008942827 -0.014036344 -0.015098279
0000b0 56 d3 f6 3c 13 f0 e3 bb bf a1 92 bd 3c 41 8a 3d
       0.03013007 -0.0069561093 -0.07159757 0.06750724
0000c0 66 67 e7 3d f5 16 87 3c cd 49 a1 3d 97 45 d6 3a
       0.112990186 0.016490439 0.078754045 0.0016347644
0000d0 d8 f8 e6 bd 67 9d 33 3d f8 69 34 bc cd 84 ea 3a
       -0.11277932 0.043851282 -0.011011593 0.0017892361
0000e0 ed 9d e7 3c 0b 78 ae 3d 0c 35 04 3d cf 22 e5 3c
       0.028273547 0.0851899 0.032277152 0.0279707
0000f0 73 33 26 3d be 87 b0 3d bb 46 c6 3d 2a fe ef 3c
       0.04057641 0.08619641 0.096814595 0.029296
000100 98 53 36 3d 1f 36 c7 3c 25 91 22 3d 77 7d 98 bd
       0.044513315 0.0243178 0.0396892 -0.074458055
000110 11 3c 57 bd 93 9a 9f 3d ac b7 3a 3d 4e cc 74 3c
       -0.05254752 0.077931546 0.04558532 0.014941288
000120 5d c6 fb bc 9e de d4 bc 0a c3 5d 3d bc 5e aa 3d
       -0.030734235 -0.025985058 0.054141082 0.083188504
000130 c7 c4 8c bc 41 1a 94 bd 60 2e 8c bc e5 6d 6c be
       -0.017183674 -0.0723157 -0.017111957 -0.23088796
000140 d9 36 98 bc f2 e8 d3 3d ef 88 1a bd ff ee 4d 3d
       -0.01858084 0.10347165 -0.037728246 0.050276753
000150 c0 10 c4 3d 52 d1 05 3d 33 0c 89 bd a7 11 7f bb
       0.09573507 0.032670327 -0.0669178 -0.0038920434
000160 c1 dc f8 3c 10 0a a4 3c b2 5f 63 3d ef 24 45 3d
       0.030378701 0.02002433 0.055511184 0.048130926
000170 2c b5 1d bd 23 0b 8d 3d 1a 64 f7 3c 9f 38 db 3c
       -0.038502857 0.0688689 0.0301991 0.026760397
000180 88 ac 39 3e 38 b5 30 bd 09 e5 9a 3c af dc 00 bd
       0.18132222 -0.043141574 0.01890804 -0.03146046
000190 7c 83 49 bd 94 df 5c bd 23 20 13 3d b2 45 cd 3c
       -0.04919766 -0.05392416 0.03591932 0.025057647
0001a0 ae 7b 33 3c 6f 12 9d 3c 12 dd a9 3c 4f ff 84 3c
       0.0109547805 0.019173829 0.020735297 0.016235022
0001b0 58 03 9c bd 8f f8 31 3d f9 6f 8a bd 3a d5 35 3c
       -0.07617825 0.043449935 -0.06759638 0.0110982
0001c0 58 7d f2 3c df 2b 12 3d 4b fd 28 3c 37 f6 44 bd
       0.029600784 0.03568637 0.010314296 -0.04808637
0001d0 1d 88 c8 3c 50 33 a0 bc 69 5b 7a bd 2e 9e 95 bd
       0.024478966 -0.019555718 -0.06112233 -0.07305561
0001e0 4d 1c 58 bd fa 99 4f 3d db 13 18 3d 1b 61 b9 3c
       -0.052761365 0.050683953 0.03712831 0.022629311
0001f0 60 47 6c 3d 65 50 b8 3d 88 e7 92 3c 2b d2 eb 3c
       0.057685256 0.08999709 0.017932668 0.02878674
000200 00 03 49 bd f9 45 40 3d 3b 20 9d 3d 71 7a 14 3d
       -0.049075127 0.04694173 0.07672163 0.03624958
000210 a8 ad 98 bd 80 b1 44 bd 68 e3 01 3e 9f d7 05 bd
       -0.07454997 -0.04802084 0.12684405 -0.032676335
000220 52 ed 44 bd f2 a5 93 bd 77 1b 80 3d da 59 08 3d
       -0.04807789 -0.07209386 0.062552385 0.033288814
000230 48 c9 c4 3d 66 ce 67 bd e2 64 f7 3c 54 b4 0f bb
       0.09608704 -0.05659332 0.030199472 -0.0021927552
000240 5e b2 96 bd 45 53 bc bd d1 0c 3b bd 6b 0a f6 bc
       -0.073582396 -0.0919557 -0.04566652 -0.030034265
000250 94 d3 f2 3c e9 46 fb 3c f6 20 80 3c 97 45 d9 3d
       0.029641904 0.030673461 0.015640717 0.10608976
000260 72 83 12 3d d6 4d 75 bd ac d8 8e bd a1 20 96 3a
       0.035769887 -0.059888683 -0.06974921 0.0011453816
000270 d1 ac b1 3d 1c 28 4c bd d7 a3 ce 3c 3a ad 07 be
       0.0867554 -0.04984294 0.02522461 -0.13249674
000280 03 f8 b8 3d 67 62 d4 3c 6c a7 a6 3d a1 6a 49 bd
       0.090316795 0.025925828 0.08137402 -0.049173955
000290 d2 95 64 3d cb 23 df 3d 14 c1 cc bc 74 f2 57 bd
       0.055806942 0.10895499 -0.02499441 -0.052721456
0002a0 6e c2 b8 bc e7 1f 4c bc 71 76 9b bc fd cf 0c be
       -0.022553649 -0.012458778 -0.018977376 -0.13751216
0002b0 15 66 99 bd 31 b8 8e bc 3a 61 3c bc 6c 5b 20 3d
       -0.07490174 -0.017421814 -0.01149779 0.039149687
0002c0 9a 35 0a bd eb 9d 03 bd 90 a3 d5 bb c9 c0 9d bd
       -0.033742525 -0.032133024 -0.0065197423 -0.077027865
0002d0 a6 80 16 3d b9 6c 0b 3d c6 7c c1 3c 25 5f 07 bb
       0.036743782 0.034039233 0.023619067 -0.0020656076
0002e0 bf 65 65 3e 99 46 ff bb ea 05 3f 3d 09 21 94 3d
       0.22402094 -0.0077903983 0.0466365 0.072328635
0002f0 99 51 2b bc c2 8d 95 bd 3f 28 87 bc cd 5c 47 bb
       -0.010456466 -0.07302429 -0.016498683 -0.0030420304
000300 b9 eb a8 bb c7 60 3a 3c d6 8f cd 3d 63 5c ef 3d
       -0.0051550535 0.011375613 0.100372 0.11687543
000310 4f ae 1f bd 57 53 df 3d cf 09 f1 3c 91 7b a1 bc
       -0.038984593 0.10904568 0.029423622 -0.019712241
000320 a3 75 83 3d c8 35 95 3d 33 f8 10 bd c0 7d c6 3c
       0.06418922 0.072856486 -0.03539295 0.024229884
000330 e7 bc 8a bd b0 72 29 be a9 35 10 3e 3b 09 26 3b
       -0.067743115 -0.16547656 0.1408297 0.0025335092
000340 56 2d 86 ba 6f 5f b5 bb ea 75 48 3d fa e6 f8 3a
       -0.00102369 -0.005535058 0.048940577 0.0018989735
000350 85 34 06 bd 34 e6 a8 3d 5c cb 36 bc eb a9 61 bb
       -0.03276493 0.08247033 -0.011156883 -0.0034433554
000360 db 12 10 bd c9 92 b8 3c 2d b1 08 bd 7d 82 02 3d
       -0.035174232 0.02253093 -0.033372093 0.031862725
000370 49 5c 55 bd 92 4a 62 bd ad 60 03 3e 6a 12 e3 bc
       -0.052089963 -0.055246897 0.12829848 -0.027718741
000380 42 a0 22 3d a4 a4 de 3c e3 c0 8e 3d 60 39 a5 3c
       0.039703615 0.027178116 0.06970384 0.02016896
000390 2a dd bd bc 0d 4c 19 bc 90 0f 96 bd 6e da 07 bc
       -0.023176748 -0.009356511 -0.07327187 -0.008291824
0003a0 76 ea b1 3d 74 79 21 3e b4 0c 8c 3d 37 1e 6d bd
       0.08687298 0.15768987 0.068383604 -0.057890143
0003b0 56 6e d9 bc f3 65 71 3d 69 d5 3d 3d e3 1c 63 3d
       -0.02654187 0.058935117 0.046346102 0.05544747
0003c0 c6 5e a0 b9 88 9d 76 bd de 7b 70 3d f3 45 8d bc
       -0.0003058819 -0.060208827 0.05871188 -0.017245268
0003d0 d1 3d ff 3c ad ed 21 bd bf f1 b3 bd c1 f0 43 3c
       0.031157406 -0.039533306 -0.08786344 0.011959256
0003e0 95 c9 6f bd 10 5e a0 3d 5e ba 2e 3d 08 f2 13 bd
       -0.058541853 0.07830441 0.042658202 -0.03611949
0003f0 92 02 bd 3d ff cc 4b 3c 46 74 2a bc 45 bf 41 bd
       0.09229006 0.012439012 -0.010403698 -0.04730155

weight f4 [3, 256]
000000 24 ae 47 bd 63 1c 2e 3d 13 5b 92 3b a2 93 a4 bd
       -0.048750058 0.04250754 0.0044664233 -0.08035971
000010 78 82 12 bd 43 8a 60 bd 54 89 5a bd 80 8a cd bd
       -0.035768956 -0.054819357 -0.053353623 -0.100361824
000020 a7 8b be bc 48 fc 7f be 19 e4 37 3d 46 53 1c 3d
       -0.02325995 -0.24998581 0.044895265 0.038165353
000030 03 de 69 bd bf 87 fc ba 62 ee be bc e8 44 ae bd
       -0.057096492 -0.001926653 -0.02330703 -0.085092366
000040 d4 5c 8d bc 0b f0 99 bd a6 75 b5 bd 12 c0 02 3d
       -0.017256178 -0.07516488 -0.0886033 0.031921454
000050 f1 c6 a4 bc c0 99 7b bd 9b 85 2b 3d eb 5a 32 bd
       -0.020114394 -0.061425924 0.041875463 -0.043543737
000060 27 85 20 bc d4 b0 87 bc 04 36 32 3e 2e 66 5b bd
       -0.009797371 -0.01656381 0.17403418 -0.053564243
000070 67 04 1b 3d 6d 8f ba bd 3a d9 a6 bd d8 0d cd bd
       0.037845995 -0.091093875 -0.081469014 -0.10012406
000080 f8 6b f2 bc d4 66 b1 bd d3 cb 0a bd 43 5b ea bc
       -0.0295925 -0.08662191 -0.03388579 -0.02860797
000090 52 b7 98 3c 52 0a 68 3e 5f 12 21 3d 24 61 10 be
       0.018642101 0.22660187 0.03932416 -0.14099556
0000a0 8c eb d0 bc 30 55 5c bb bd a9 c8 3c 8d ef a2 bd
       -0.025502943 -0.0033620112 0.024495 -0.07955847
0000b0 b0 3a 7c 3e 07 c9 89 3d 2d a0 bf 3c 7d e7 3c 3e
       0.24631763 0.06727796 0.023391807 0.18447681
0000c0 5e cd c1 bd 09 24 9e bc 80 31 5c bd 3a 48 b8 bd
       -0.09462999 -0.019304292 -0.053758144 -0.08998151
0000d0 5b 97 e5 3e 7a 6b 30 bd ba 8f 13 3d 7f a5 27 bc
       0.44842038 -0.043071248 0.03602574 -0.010232328
0000e0 3e 3c 97 3c fd 17 ff 3d 7f a1 4e 3d 88 d6 94 3c
       0.018461343 0.12455747 0.050446983 0.018168703
0000f0 1f 3d 16 bd 25 74 8d bd 59 e0 44 be bf 75 26 bd
       -0.036679383 -0.069069184 -0.19226207 -0.040639635
000100 7f 33 78 bd 6b 02 7e 3e cc dd 8f bc 97 ef 67 ba
       -0.060595986 0.2480561 -0.017561816 -0.00088476524
000110 57 9a bd 3b 45 19 45 3d a0 5d 55 3e 3e 01 da 3b
       0.005786221 0.048119802 0.20836496 0.00665298
000120 82 ac 87 3c 13 f0 eb 3d 35 63 85 bd 0a f6 59 bd
       0.01656175 0.115204 -0.06513063 -0.053213157
000130 b7 b1 94 bd 6c f2 44 bd 48 68 ae bd f6 a5 69 be
       -0.07260459 -0.048082754 -0.08515984 -0.22817215
000140 2e 72 96 bd 3e b9 0a 3e 1c a6 fe 3c e5 d0 1a bd
       -0.07345997 0.13547227 0.031085066 -0.037796874
000150 a9 d6 e9 bc 50 31 91 bc b1 ff 67 bd a6 30 20 bc
       -0.02854474 -0.01772371 -0.05664033 -0.009777224
000160 b2 93 b6 bd 75 14 c3 bc 9a d4 93 3e 84 d4 42 3d
       -0.089148894 -0.023813466 0.2887314 0.047565952
000170 59 45 d8 ba 49 da 07 bd 54 2b 5b 3e 99 9b 85 bc
       -0.0016500159 -0.033167157 0.21403247 -0.016309546
000180 69 1f d4 3e b3 5a 56 3d 23 7d 2c bd 26 c6 51 bb
       0.41430214 0.05233259 -0.042111527 -0.0032008975
000190 d4 69 00 3d 0c 7f cb 3c a0 81 d7 3d 83 db ad bd
       0.031350926 0.024840854 0.10522771 -0.08489134
0001a0 62 46 9c 3d b7 d8 b0 3c 17 bf 17 bd 35 7d c9 bc
       0.07630612 0.021587713 -0.03704747 -0.024595836
0001b0 45 a9 52 3c 23 6f 9f bc e4 65 3c 3d 13 7f 43 3c
       0.01285774 -0.019462174 0.045995608 0.011932152
0001c0 ed d0 d7 3d c0 07 81 3c 9f 70 8c bd 48 61 b1 bd
       0.10537896 0.015750766 -0.06857418 -0.08661133
0001d0 c6 d8 af 3c 64 39 a8 bd b8 a2 74 3c 9b 12 3c 3e
       0.02146567 -0.082140714 0.014931373 0.18366472
0001e0 e2 79 19 bd d7 de 8a bd ee 9f d4 3d 89 d1 4d 3d
       -0.037469752 -0.067807846 0.10382067 0.050248656
0001f0 e7 15 1a bc 63 18 8a bd 88 8a 85 bc 3e db 22 3e
       -0.009404636 -0.06742933 -0.016301408 0.15903947
000200 03 e8 36 3d f7 49 28 bd 8f 65 9b bd 54 63 03 bd
       0.044654857 -0.041086163 -0.0758773 -0.03207715
000210 2b 62 89 bd 97 97 76 bc 06 ca bb be 7c b1 7a 3f
       -0.06708177 -0.01505079 -0.3667757 0.9792707
000220 e6 9f 84 bb d6 19 58 be 61 ef 93 3e ad c1 e5 bb
       -0.0040473817 -0.21103606 0.2889357 -0.0070116133
000230 83 56 d1 3d 07 5d 36 bd a4 fa 28 3c 84 d9 7c 3d
       0.10221579 -0.04452231 0.010313664 0.061730877
000240 e7 ae a1 3c 41 f7 1c be fd 26 e7 3c 9c 06 5c 3d
       0.01973672 -0.15328695 0.028216833 0.05371724
000250 59 c9 d4 be 2f da ce 3d 4a 78 08 be 08 fc 5a 3e
       -0.41559866 0.10100209 -0.13327137 0.21385205
000260 ee f0 ca bc 7e b7 74 3c fc 22 dd 3c b0 2e d6 bc
       -0.024773087 0.014936326 0.02699422 -0.02614531
000270 74 07 90 bd 6e 05 0b bd 09 d9 85 3c 69 e3 70 bd
       -0.070326716 -0.033940725 0.016338842 -0.058810625
000280 6a e4 47 3e c8 b2 28 b8 07 58 35 bd 84 37 b0 3e
       0.19520727 -4.0220824e-05 -0.044273403 0.34417355
000290 7c 7d e3 bc 82 e8 b6 3e 20 ad 41 bb b1 e0 00 be
       -0.027769797 0.35724264 -0.0029552653 -0.12585713
0002a0 f0 e7 1a bd dd ec 85 3e 70 85 4f bd 59 8a 0a 3b
       -0.03781885 0.26157275 -0.050664365 0.002113959
0002b0 35 d5 b6 3c 55 63 37 3d ea 04 9b bc 1d 06 85 bd
       0.022318462 0.044772465 -0.018923242 -0.06495307
0002c0 12 e9 29 3d d8 52 14 3d 86 57 44 bc 11 d5 7e bb
       0.04148204 0.03621182 -0.011983758 -0.0038884322
0002d0 f2 21 9a bd 53 27 75 bd c7 89 b0 bd 96 95 81 3c
       -0.07526006 -0.059851956 -0.08620029 0.015818398
0002e0 2d 78 c1 3e 01 78 7d bd 5f 2a ac 3c dc 91 2a 3d
       0.37787 -0.061882023 0.021016298 0.04164301
0002f0 ae 98 46 3d c5 c5 51 3e 7a 8a 5c bd ec 6d bc bb
       0.04848545 0.204856 -0.053843 -0.0057504084
000300 48 be d5 3d 67 46 0a 3e e2 4c 5a 3e f1 e7 58 bd
       0.10436684 0.13503419 0.21318391 -0.05295557
000310 8e 76 61 bd f9 1c f1 3e 01 d9 a2 bc 44 41 8d bc
       -0.055044703 0.47092417 -0.019878866 -0.017243035
000320 22 01 ad bd 44 6a fe bc e2 12 31 3d 8e 65 ff 3c
       -0.08447482 -0.03105653 0.0432309 0.031176355
000330 1a e6 ee bc 9d 1b 6e bd 71 26 ce 3d 2f 94 ed bc
       -0.029162455 -0.058131803 0.10065926 -0.029001324
000340 d2 91 fd bd ee ee 1e be 41 7f f9 3c 1b 72 17 3d
       -0.12381329 -0.15520832 0.030456187 0.036974054
000350 57 4c 19 3c 81 33 55 bd ea d7 8d 3c 0c 47 b3 bc
       0.00935658 -0.05205107 0.01731487 -0.021884464
000360 7b 6c 79 bc f0 c6 7d bd 39 06 11 be 28 20 e9 bc
       -0.015223618 -0.0619573 -0.1416253 -0.028457716
000370 3d 9a 95 bc 7e 9b b8 3b 16 b4 17 3e 51 60 31 be
       -0.018262023 0.0056337705 0.14814791 -0.17321898
000380 f8 0d dc bb b7 00 f4 3c 23 b9 94 bd ba 00 12 bd
       -0.0067155324 0.029785497 -0.072618745 -0.035645224
000390 c8 46 3b 3b af 79 07 3d ca 0b 23 3c 25 bb 3e bd
       0.0028576124 0.03307503 0.009951541 -0.046565194
0003a0 4a 5d 8f bd cd ec 24 3c b1 9f f5 3d 03 5b 6a 3d
       -0.07000215 0.010066223 0.11993349 0.0572157
0003b0 be 1a 16 3d 37 31 4e bd 15 af 2b 3e 56 7e 45 3e
       0.036646597 -0.050339904 0.16766007 0.19286475
0003c0 2f 1e c7 ba 0a eb 1f bd 12 07 76 bd 61 cf db bc
       -0.001519149 -0.03904251 -0.060065337 -0.026832284
0003d0 c8 f0 ab 3c 69 9d 6a bd f3 f9 9e 3e ff 02 48 bd
       0.020988837 -0.057279024 0.3105007 -0.048830982
0003e0 f4 08 1b bc be 3d e8 3d cd 2d cd bd 9d f1 d2 bd
       -0.009462584 0.113399014 -0.100185014 -0.1029999
0003f0 77 29 69 bd 92 85 6a 3e 88 dd 33 bd b7 a8 34 3c
       -0.05692431 0.22902516 -0.04391244 0.011026553

bias f4 [3]
000000 2e 98 73 bd f7 98 72 3d 06 74 09 bd
       -0.0594713 0.05922791 -0.033557914
