TrainedModel/Actor.1.pkl (torch, 280584 bytes, 6 tensors)

weight f4 [256, 9]
-0.35773894 0.090804785 0.3450291 0.43211183 -0.49785677 0.27318963 0.47667247 -0.5031475
0.108377784 0.15672494 -0.17672226 0.9725972 0.39507934 0.54386985 0.60558337 -0.1299287
0.3562344 0.040494442 -0.18061201 0.039297476 -0.3451012 0.17128791 0.08562651 0.11974025
0.014064949 -0.4056569 0.06965193 -0.2853365 -0.16263661 0.5920448 0.030870104 -0.058424316
-0.6066851 0.1043285 0.02318961 0.23610762 -0.23859775 0.09253868 -0.13565068 0.8129542
-0.2836328 0.41516802 0.109992616 -0.0901438 -0.12983906 -0.28751 0.08663679 0.03053292
-0.20773792 -0.23537269 -0.34382087 -0.12255298 -0.13807984 0.25849524 -0.1672956 -0.17322768
0.061798945 0.07480386 0.17471638 -0.25366744 0.08175073 -0.059880808 -0.03849852 0.23088245
-0.086605564 0.31466505 0.26408252 0.14181912 -0.25328258 -0.048858885 -0.47666857 0.031691313
0.29598433 0.4129715 -0.24161568 -0.15372227 -0.23599651 -0.08717113 0.43702394 0.63604814
-0.32471037 0.093822956 -0.117159 -0.23697543 -0.2034898 0.4479266 -0.1291952 -0.18491362
-0.23113325 -0.3231418 0.31767565 -0.31360134 0.6980516 0.101008154 0.022618875 0.569962
-0.02946689 0.33996215 -0.017083287 0.02075302 -0.24684276 -0.22471772 0.31208307 0.08139702
0.6905187 -0.21511033 -0.107595004 -0.09348118 -0.10645461 0.45210722 0.33232492 -0.3643131
-0.2046305 -0.3053807 -0.5218594 -0.019248677 -0.32927215 0.07840237 -0.027275657 0.5112056
-0.35450333 -0.13640617 -0.2664635 -0.5739904 0.095483884 0.14932021 0.22956729 0.31651115
-1.3235797 0.5277925 -0.15032 0.15599792 0.03985773 -0.46247068 -0.3295014 -0.0015462637
0.37818182 -0.4048106 -0.46714273 0.12467719 -0.594109 -0.90552294 0.40919948 -0.22373223
0.18817002 -0.2369646 1.3641042 -0.005645366 0.30171922 -1.043942 -0.3239827 -0.128
0.2322047 -0.20033729 0.040369924 0.093908764 -0.14245148 -0.16830686 0.16835424 -0.21285927
0.3488239 0.19416943 -0.18017645 0.24497648 1.555626 -0.21339387 -0.07739994 -0.572183
-0.56263995 -0.07273689 -0.022647172 0.21796733 -0.3084445 -0.19145393 -0.11664775 -0.0072893607
-0.20179832 -0.09073301 0.55994743 -0.31795105 -0.050715603 -0.08290012 0.011788012 -0.2214345
0.43026203 -0.3501853 0.510694 0.16420776 0.25236693 0.004975817 0.19393171 0.032964423
0.27269587 0.3098566 0.41444486 -0.43639278 0.01070737 0.05572495 0.07384564 -0.2279684
-0.4789463 0.21312968 -0.026012095 0.78433794 0.11314262 0.3322572 -0.043497205 -0.18069707
0.17426518 0.20653732 -0.18652473 -0.25815234 0.43699425 0.3047787 -0.2218268 0.2474638
0.23052098 -0.31816378 -0.07758889 -0.0058665173 0.11272447 0.004003595 -0.024212873 0.21881728
0.035959512 -0.25133005 0.08090621 -0.2362124 0.14519261 0.33118045 -0.027984714 -0.43570486
0.036482494 -0.27694604 0.025489215 0.054540917 -1.3341383 0.5764059 -0.4395733 0.44076738
-0.16104998 0.4664202 0.14576831 0.016154232 0.65311486 0.32807934 0.032470148 0.07918876
0.8159358 0.13964325 0.371083 0.09107101 0.17072557 -0.14603856 0.48041156 -0.020364292
00000000: 8f29 b7be dcf7 b93d a7a7 b03e c33d dd3e
00000010: 15e7 febe 83df 8b3e 6a0e f43e 46ce 00bf
00000020: 2cf5 dd3d 817c 203e aef6 34be 21fc 783f
00000030: d747 ca3e 0e3b 0b3f 8307 1b3f 070c 05be
00000040: 5b64 b63e 80dd 253d 5bf2 38be 64f6 203d
00000050: 1bb1 b0be 1966 2f3e f45c af3d 603a f53d
00000060: ac70 663c 43b2 cfbe aca5 8e3d a017 92be
00000070: 368a 26be 3f90 173f 4de3 fc3c 564e 6fbd
00000080: b74f 1bbf 2eaa d53d 23f8 bd3c 32c6 713e
00000090: f852 74be eb84 bd3d 03e8 0abe c41d 503f
000000a0: 5238 91be e790 d43e cf43 e13d 509d b8bd
000000b0: 88f4 04be 8334 93be a16e b13d 2d20 fa3c
000000c0: 40b9 54be 8a05 71be 4a09 b0be 0ffd fabd
000000d0: cd64 0dbe 7d59 843e 8a4f 2bbe 9962 31be
000000e0: e420 7d3d c432 993d dae8 323e b3e0 81be
000000f0: ed6c a73d 9445 75bd a0b0 1dbd 736c 6c3e
00000100: 425e b1bd c71b a13e d335 873e 0839 113e
00000110: 41ae 81be 4120 48bd e70d f4be c0ce 013d
00000120: 428b 973e 0071 d33e 1a6a 77be 5f69 1dbe
00000130: 12a9 71be c786 b2bd 9ac1 df3e 0dd4 223f
00000140: 7040 a6be 4026 c03d 0ff1 efbd b0a9 72be
00000150: a15f 50be a356 e53e bf4b 04be ff59 3dbe
00000160: 32ae 6cbe d872 a5be 62a6 a23e 5b90 a0be
00000170: 82b3 323f 5ddd ce3d 384b b93c 08e9 113f
00000180: 8c64 f1bc 850f ae3e 40f2 8bbc 3d02 aa3c
00000190: 59c4 7cbe 671c 66be 5ac9 9f3e 7bb3 a63d
000001a0: d5c5 303f e245 5cbe c55a dcbd 1073 bfbd
000001b0: e004 dabd 997a e73e 7e26 aa3e 3f87 babe
000001c0: a88a 51be dc5a 9cbe 9498 05bf 67af 9dbc
000001d0: 5c96 a8be 6c91 a03d 3371 dfbc 5fde 023f
000001e0: 7681 b5be 0fae 0bbe e76d 88be 09f1 12bf
000001f0: 0e8d c33d 66e7 183e b013 6b3e c00d a23e
00000200: 0f6b a9bf 691d 073f 7ced 19be ebbd 1f3e
00000210: dc41 233d f5c8 ecbe 68b4 a8be 00ac caba
00000220: 0ca1 c13e 5643 cfbe 552d efbe c156 ff3d
00000230: 8717 18bf 5ad0 67bf 9882 d13e 101a 65be
00000240: a4af 403e d9a6 72be f79a ae3f c3fc b8bb
00000250: f17a 9a3e e49f 85bf 0fe1 a5be 6f12 03be
00000260: 12c7 6d3e 3825 4dbe ef5a 253d 3d53 c03d
00000270: cdde 11be a258 2cbe 0e65 2c3e c8f7 59be
00000280: 0c99 b23e 5ad4 463e 2d80 38be 1ddb 7a3e
00000290: c11e c73f ec83 5abe dc83 9ebd 967a 12bf
000002a0: 2c09 10bf 14f7 94bd 9086 b9bc d432 5f3e
000002b0: 70ec 9dbe 800c 44be 04e5 eebd 97db eebb
000002c0: 38a4 4ebe 3ad2 b9bd b758 0f3f 7bca a2be
000002d0: 2abb 4fbd 8ac7 a9bd 8222 413c babf 62be
000002e0: 4e4b dc3e 7d4b b3be d8bc 023f 1426 283e
000002f0: 3d36 813e 2e0c a33b 0996 463e b405 073d
00000300: cb9e 8b3e 86a5 9e3e 1e32 d43e e06e dfbe
00000310: f76d 2f3c d83f 643d 623c 973d 8c70 69be
00000320: 7338 f5be ab3e 5a3e 5117 d5bc 5fca 483f
00000330: 51b7 e73d 9e1d aa3e 202a 32bd a708 39be
00000340: 9272 323e 857e 533e 5700 3fbe 8b2c 84be
00000350: b6bd df3e f40b 9c3e 9126 63be 2667 7d3e
00000360: b10d 6c3e 5de6 a2be ede6 9ebd ea3b c0bb
00000370: 16dc e63d 9730 833b 135a c6bc a311 603e
00000380: 484a 133d 55ae 80be 28b2 a53d aae1 71be
00000390: 5fad 143e 7c90 a93e 3340 e5bc b514 dfbe
000003a0: ab6e 153d dfcb 8dbe c2ce d03c 4c66 5f3d
000003b0: 0bc5 aabf 568f 133f c00f e1be 43ac e13e
000003c0: 49ea 24be a1ce ee3e 4a44 153e e155 843c
000003d0: 8932 273f 04fa a73e 6bff 043d b72d a23d
000003e0: 2be1 503f a4fe 0e3e 97fe bd3e 7083 ba3d
000003f0: afd2 2e3e 228b 15be 81f8 f53e 04d3 a6bc

bias f4 [256]
-0.09271454 0.28441286 0.30818367 -0.4856305 -0.08143334 -0.39857134 -0.17293137 -0.1988586
-0.020701423 0.2776379 0.024078518 0.14898396 0.07894429 0.08892173 -0.120351605 -0.045822956
0.04803943 -0.3095042 0.06517609 -0.0014847848 -0.21973397 0.36480644 -0.08425755 0.1769477
0.2397372 -0.20243023 -0.13343279 -0.019109981 0.20870791 0.36204937 -0.3728985 -0.017662564
-0.36145532 0.10036096 -0.05624672 -0.17986661 0.3558433 -0.31535572 -0.3590704 -0.22365887
0.11405167 0.2180572 0.45515835 -0.036540564 0.010457256 -0.18526445 -0.31525072 0.19403297
-0.5829346 -0.073059216 -0.2920006 -0.092908226 0.14391044 -0.16392365 -0.08494271 0.14718851
0.1624917 0.18685775 0.20533884 0.16840665 -0.13928345 0.3135987 -0.22670327 0.059016846
-0.057873946 -0.28261337 0.15832677 0.0935959 0.14009887 0.39048323 0.1360299 -0.27973917
0.10983253 0.18959144 0.0449925 0.18505381 0.21396811 0.29845294 0.17944343 -0.16720812
-0.20469254 -0.53093296 0.086664364 0.3786409 -0.1437292 0.2264667 -0.10109921 0.010596311
-0.3393765 0.3132168 -0.24129513 0.2573627 -0.030289927 0.38886353 -0.027240563 -0.32306075
0.28210077 -0.22869945 0.28418255 0.096109726 -0.20866394 -0.19744386 -0.23604226 0.2613651
-0.27048934 0.2802271 -0.08234865 -0.35434255 0.029700765 0.10010588 0.06674399 -0.011874221
-0.24842131 -0.13172315 -0.2943302 -0.3709151 -0.11270532 0.20480485 0.16388364 0.13655333
0.4290663 0.22467157 0.33388895 0.16966817 -0.37882733 -0.5156656 0.26410568 0.108675666
-0.1581373 0.025610782 -0.17130207 -0.09159656 -0.2600071 -0.53318805 0.28550377 -0.15944274
-0.39956266 0.22365084 -0.16647857 -0.26522094 -0.18225771 0.0054638786 0.13849303 0.5152346
-0.15155318 0.05219912 -0.21805434 0.56462663 -0.32303953 -0.2018498 -0.17485863 -0.22365788
-0.076101795 0.23696388 0.1691164 -0.16400805 -0.49584606 0.15456523 0.2449849 -0.005009164
-0.363213 -0.33394185 0.19515435 0.31079286 0.051868204 -0.07662571 -0.17130394 0.057430033
-0.26916456 0.3137779 0.21098469 0.48304623 0.07912438 -0.3383457 -0.118543975 0.36736953
-0.3105196 0.028161883 -0.060116444 0.2891145 -0.17533778 -0.42703816 -0.12960394 -0.56276876
0.120911345 0.25132585 -0.24224623 -0.2756664 -0.16117288 0.056562338 0.23511285 -0.35329378
-0.022449333 0.01868477 0.3707376 -0.18046866 -0.44629657 -0.51742035 -0.15997167 0.26388264
-0.26197124 0.25383762 -0.01127193 -0.042476464 -0.18449521 -0.008786972 0.36839178 0.3039272
-0.09059713 0.02031842 -0.046445362 0.32513618 0.02406683 0.07702526 0.18003342 0.2285713
-0.04585219 0.08711213 0.08640603 -0.1318723 0.3222924 0.16231565 -0.43865946 0.06184881
-0.103298545 0.25025627 0.17524543 -0.08717688 0.21940964 0.0061872755 0.0016027027 0.2531564
-0.41181123 0.012151581 0.030441426 -0.18902324 -0.027044693 0.08757016 -0.67157614 -0.05741801
0.29293287 -0.3148599 -0.29384893 -0.4481564 -0.26814803 -0.050176743 -0.2817167 0.060961433
-0.19663288 -0.29604885 0.41685587 -0.27046445 0.18439883 0.13352181 0.17916127 -0.1521148
00000000: 1fe1 bdbd 909e 913e 40ca 9d3e 90a4 f8be
00000010: 86c6 a6bd 8b11 ccbe ec14 31be 97a1 4bbe
00000020: 0896 a9bc 8e26 8e3e 5040 c53c 408f 183e
00000030: 8bad a13d 991c b63d e77a f6bd dab0 3bbd
00000040: fec4 443d 5677 9ebe 0b7b 853d 1c9d c2ba
00000050: f101 61be e9c7 ba3e 398f acbd c731 353e
00000060: ab7d 753e df49 4fbe 9ba2 08be 898c 9cbc
00000070: 87b7 553e 895e b93e 8dec bebe 15b1 90bc
00000080: ac10 b9be 0c8a cd3d f662 66bd f42e 38be
00000090: 1831 b63e 4e76 a1be 13d8 b7be d506 65be
000000a0: ec93 e93d 634a 5f3e 840a e93e 8fab 15bd
000000b0: e954 2b3c f7b5 3dbe 8b68 a1be 94b0 463e
000000c0: 343b 15bf 12a0 95bd 1a81 95be ab46 bebd
000000d0: 425d 133e 9adb 27be 72f6 adbd 96b8 163e
000000e0: 3964 263e a357 3f3e 5844 523e cb72 2c3e
000000f0: 52a0 0ebe 0290 a03e e724 68be a6bb 713d
00000100: 3b0d 6dbd b3b2 90be 6a20 223e 35af bf3d
00000110: 1476 0f3e 6bed c73e 6c4b 0b3e f939 8fbe
00000120: e1ef e03d 4224 423e 0e4a 383d bf7e 3d3e
00000130: 751a 5b3e d3ce 983e 05c0 373e 9b38 2bbe
00000140: ec9a 51be 39eb 07bf 167d b13d 38dd c13e
00000150: bf2d 13be e3e6 673e 1a0d cfbd 269c 2d3c
00000160: c2c2 adbe f45d a03e 1216 77be 0bc5 833e
00000170: 9522 f8bc 1f19 c73e 9a27 dfbc 3868 a5be
00000180: 836f 903e 3030 6abe 6080 913e 2dd5 c43d
00000190: 00ac 55be b92e 4abe 10b5 71be a5d1 853e
000001a0: 947d 8abe ed79 8f3e 69a6 a8bd 636c b5be
000001b0: 054f f33c 5004 cd3d 13b1 883d 188c 42bc
000001c0: 2862 7ebe 6fe2 06be 73b2 96be 96e8 bdbe
000001d0: 0cd2 e6bd 5db8 513e 1dd1 273e a3d4 0b3e
000001e0: 94ae db3e 4e10 663e 7ef3 aa3e 7ebd 2d3e
000001f0: a8f5 c1be a902 04bf dc38 873e 5991 de3d
00000200: bfee 21be b4cd d13c cf69 2fbe fa96 bbbd
00000210: a71f 85be 037f 08bf 8d2d 923e f544 23be
00000220: 7a93 ccbe ba04 653e 5c79 2abe 0acb 87be
00000230: c4a1 3abe 560a b33b 1ed1 0d3e 6ae6 033f
00000240: c230 1bbe bfce 553d a349 5fbe 5f8b 103f
00000250: 7065 a5be b7b1 4ebe 240e 33be 9206 65be
00000260: 42db 9bbd a9a6 723e d92c 2d3e baf1 27be
00000270: 89df fdbe 5946 1e3e 52dd 7a3e ea23 a4bb
00000280: 0ef7 b9be 6dfa aabe 8bd6 473e 3e20 9f3e
00000290: c173 543d f1ed 9cbd 4d6a 2fbe c13b 6b3d
000002a0: f0cf 89be 7fa7 a03e 5f0c 583e d651 f73e
000002b0: f70b a23d a63b adbe 2fc7 f2bd dc17 bc3e
000002c0: 6dfc 9ebe c0b3 e63c a93c 76bd d106 943e
000002d0: bf8b 33be bfa4 dabe e5b6 04be 9d11 10bf
000002e0: 5ea0 f73d c8ad 803e 650f 78be 2524 8dbe
000002f0: 810a 25be e9ad 673d 6cc1 703e ece2 b4be
00000300: aae7 b7bc ce10 993c 52d1 bd3e c7cc 38be
00000310: fc80 e4be a975 04bf 9dcf 23be a01b 873e
00000320: 1821 86be 01f7 813e e7ad 38bc cdfb 2dbd
00000330: 50ec 3cbe 3bf7 0fbc d99d bc3e 599c 9b3e
00000340: fd8a b9bd d172 a63c 7e3d 3ebd 4078 a63e
00000350: cd27 c53c 6bbf 9d3d ae5a 383e 980e 6a3e
00000360: 82cf 3bbd d867 b23d a5f5 b03d 8809 07be
00000370: 8203 a53e 1336 263e f997 e0be 2e55 7d3d
00000380: 308e d3bd 9721 803e 8a73 333e cb89 b2bd
00000390: ecac 603e a1be ca3b c711 d23a b79d 813e
000003a0: ecd8 d2be 6d17 473c 4c60 f93c 4f8f 41be
000003b0: d58c ddbc fc57 b33d 6aec 2bbf 262f 6bbd
000003c0: 4cfb 953e 5135 a1be 5e73 96be c174 e5be
000003d0: b34a 89be 2186 4dbd 2c3d 90be b2b2 793d
000003e0: 215a 49be b793 97be 226e d53e 517a 8abe
000003f0: 0cd3 3c3e f1b9 083e 0d76 373e fbc3 1bbe

weight f4 [256, 256]
-0.10971628 0.12622318 -0.09205067 0.1202944 -0.2854547 0.020467458 0.05722218 0.12595306
0.021402853 0.15652546 0.07222208 0.0821158 -0.05102147 -0.049527667 0.11152727 0.03944931
0.16882683 0.13733627 0.093354665 -0.0012313195 0.13496898 0.037633255 -0.0580935 -0.010855543
-0.050498996 0.058513626 -0.1373827 -0.04933078 0.035100278 -0.095181614 0.060321223 0.033925332
-0.089060605 -0.10356675 -0.07746417 0.0190829 -0.025205163 0.036717694 0.53173393 -0.0037164974
-0.02406617 0.12238847 -0.024496686 0.033701524 -0.024378095 -0.14583504 -0.14282085 0.023360422
0.09273978 -0.026017228 0.2668092 0.086036235 0.105866805 0.06861701 -0.027529636 -0.035028033
-0.06940982 -0.048121378 0.06070798 0.16409698 -0.13803597 -0.014536063 0.09069296 -0.2186171
0.02079287 0.0076793847 0.10991829 0.062012527 -0.065579504 -0.05896052 -0.024695607 -0.15963519
0.19857827 -0.13757214 -0.09274364 0.08041957 -0.15011841 0.041278798 0.028122857 0.054690897
0.07032766 -0.02690318 0.051695306 0.05344897 -0.02500794 0.08251346 0.13538282 -0.056068018
0.05512951 -0.066880435 -0.05876551 0.127169 0.023906635 0.1677033 -0.2026742 0.16122474
-0.07994944 0.14206503 0.10618584 -0.24355957 -0.23047797 0.065141276 0.0118059125 0.00885792
-0.039126668 -0.033317477 0.029134596 0.048841473 0.062021337 0.035938587 0.016895603 -0.03076973
-0.023337845 0.04058756 0.05688695 -0.1411342 -0.2582312 -0.14940178 -0.1130378 -0.052706346
0.021287523 0.06783098 0.04262345 -0.06597547 -0.036285806 0.11029941 0.13935179 -0.04073369
-0.020489644 0.10175055 -0.10865018 -0.10882745 0.038624965 -0.12543958 0.022134189 -0.101046294
-0.1109523 0.08651126 -0.058776803 0.2173972 -0.0095965555 0.0066165607 -0.21308751 0.018574134
-0.14918545 -0.0070595257 0.081516735 0.012664746 0.022238465 -0.20920739 -0.13509892 0.098314926
-0.14260182 0.0060269586 -0.061024636 0.32064393 0.19925773 -0.19302694 0.06149454 -0.039424106
0.0458559 0.0688066 -0.060718622 -0.20977162 0.07916782 0.0007772165 0.08832871 0.06885652
0.10461466 0.02560844 -0.062222786 -0.06571357 0.106567785 -0.053644553 0.04081509 -0.02316813
-0.14989501 -0.06281578 -0.08333965 0.1256138 -0.20083289 0.13078795 0.12467215 -0.003890257
-0.02754406 -0.2415387 -0.10738637 -0.017943613 -0.16771644 -0.01753018 0.16439204 -0.0069064493
0.02012189 0.08872615 -0.087800086 -0.14011984 0.03258653 0.07319309 -0.08583016 -0.15832795
0.07256426 0.042177398 0.18621767 -0.15272106 0.15319496 -0.047263566 -0.06722788 -0.025509804
-0.18236226 0.16223766 0.019590879 0.09344244 0.07224348 -0.0033366543 0.03498232 -0.07449061
0.018295757 0.0073155696 -0.12861195 -0.13870627 -0.03541337 -0.013498377 0.08528976 0.075394355
0.09385691 0.065685384 -0.008397275 0.023294672 -0.0843502 0.2344457 -0.061101116 0.16962105
0.0099841915 0.08163759 0.05325439 0.05908158 0.084748924 -0.14762314 0.42994657 -0.30722442
0.06304093 0.10754047 -0.07854098 0.18600069 -0.09598552 -0.059917822 0.63720566 0.05388155
0.10424247 -0.11128332 0.088503644 0.02105071 0.024545219 0.10710192 0.051817898 0.03412541
00000000: eeb2 e0bd a640 013e 1085 bcbd e95c f63d
00000010: 1e27 92be 5fab a73c ce61 6a3d d7f9 003e
00000020: 0955 af3c 3648 203e 2be9 933d 542c a83d
00000030: e4fb 50bd 86dd 4abd 6968 e43d 9a95 213d
00000040: f1e0 2c3e e1a1 0c3e bb30 bf3d 3a64 a1ba
00000050: 4f35 0a3e 5425 1a3d 73f3 6dbd 73db 31bc
00000060: 09d8 4ebd fcab 6f3d 0dae 0cbe 120f 4abd
00000070: 4fc5 0f3d 94ee c2bd 6313 773d 4af5 0a3d
00000080: 6865 b6bd ce1a d4bd 89a5 9ebd be53 9c3c
00000090: 0f7b cebc 4b65 163d b71f 083f 7b90 73bb
000000a0: 6b26 c5bc cea6 fa3d 46ad c8bc 9c0a 0a3d
000000b0: 92b4 c7bc c855 15be a13f 12be 5b5e bf3c
000000c0: 5bee bd3d 1522 d5bc 379b 883e c433 b03d
000000d0: b2d0 d83d 1387 8c3d d585 e1bc 8e79 0fbd
000000e0: bc26 8ebd ec1a 45bd eea8 783d 0a09 283e
000000f0: 4d59 0dbe ab28 6ebc 3bbd b93d 29dd 5fbe
00000100: cf55 aa3c 59a3 fb3b d71c e13d d900 7e3d
00000110: 8c4e 86bd 9680 71bd 714e cabc 6877 23be
00000120: 1a58 4b3e b6df 0cbe 61f0 bdbd 04b3 a43d
00000130: a4b8 19be f513 293d e861 e63c 9003 603d
00000140: f307 903d 0f64 dcbc 75be 533d 4fed 5a3d
00000150: 74dd ccbc d1fc a83d cba1 0a3e 94a7 65bd
00000160: 7bcf 613d 9cf8 88bd 1ab4 70bd 9738 023e
00000170: d9d7 c33c 6aba 2b3e d389 4fbe 1918 253e
00000180: 88bc a3bd 7f79 113e f677 d93d ae67 79be
00000190: 6b02 6cbe ca68 853d 966d 413c cf20 113c
000001a0: 4943 20bd e877 08bd adab ee3c ff0d 483d
000001b0: 160a 7e3d 5734 133d a668 8a3c cd10 fcbc
000001c0: 022f bfbc 243f 263d 4a02 693d 7c85 10be
000001d0: e136 84be c8fc 18be 5d80 e7bd 9ce2 57bd
000001e0: 2c63 ae3c f8ea 8a3d ed95 2e3d 261e 87bd
000001f0: 6da0 14bd a8e4 e13d 3cb2 0e3e 5fd8 26bd
00000200: e6d9 a7bc 9862 d03d fc83 debd ede0 debd
00000210: 3635 1e3d 3c73 00be c252 b53c 5cf1 cebd
00000220: f63a e3bd d12c b13d f2bf 70bd 5f9d 5e3e
00000230: df3a 1dbc bccf d83b 9d33 5abe c828 983c
00000240: 12c4 18be 9853 e7bb 3ff2 a63d cb7f 4f3c
00000250: 712d b63c 763a 56be 5f57 0abe 5659 c93d
00000260: 3606 12be cb7d c53b f8f4 79bd 712b a43e
00000270: 380a 4c3e dba8 45be b3e1 7b3d 2c7b 21bd
00000280: 65d3 3b3d 7aea 8c3d 17b4 78bd 5fce 56be
00000290: bd22 a23d 1ebe 4b3a afe5 b43d a604 8d3d
000002a0: 3640 d63d cbc8 d13c 52dd 7ebd d694 86bd
000002b0: 3640 da3d 64ba 5bbd b92d 273d 17cb bdbc
000002c0: 147e 19be 8fa5 80bd faad aabd e7a0 003e
000002d0: 23a7 4dbe 47ed 053e 1d54 ff3d aff3 7ebb
000002e0: 15a4 e1bc ec55 77be 63ed dbbd 7cfe 92bc
000002f0: dcbd 2bbe 749b 8fbc 6356 283e 7f4f e2bb
00000300: a9d6 a43c 0eb6 b53d 88d0 b3bd 937b 0fbe
00000310: 7479 053d 42e6 953d b9c7 afbd b920 22be
00000320: 929c 943d 35c2 2c3d d8af 3e3e e962 1cbe
00000330: 24df 1c3e 7197 41bd c5ae 89bd f0f9 d0bc
00000340: 2cbd 3abe a121 263e 0d7d a03c c05e bf3d
00000350: 64f4 933d c5ab 5abb 9f49 0f3d 888e 98bd
00000360: fce0 953c 72b7 ef3b dab2 03be 0409 0ebe
00000370: 9c0d 11bd 4c28 5dbc 66ac ae3d 5b68 9a3d
00000380: 0d38 c03d 0f86 863d b994 09bc 78d4 be3c
00000390: ccbf acbd 8912 703e 2a45 7abd 24b1 2d3e
000003a0: bc94 233c 9c31 a73d 4621 5a3d 87ff 713d
000003b0: d890 ad3d 852a 17be f521 dc3e 854c 9dbe
000003c0: 9a1b 813d 2e3e dc3d 18da a0bd f776 3e3e
000003d0: 0e94 c4bd 646c 75bd e91f 233f e6b2 5c3d
000003e0: 137d d53d 82e8 e3bd 6641 b53d 8a72 ac3c
000003f0: 0e13 c93c 4058 db3d 013f 543d 16c7 0b3d

bias f4 [256]
-0.0168865 0.026839603 0.052306373 0.04355479 0.053200822 0.033113822 -0.014334741 -0.06708975
-0.032248493 -0.06677761 0.036233746 -0.07047397 0.04355738 0.08845377 0.03587543 -0.11225164
-0.011181165 -0.025527686 -0.027260363 -0.009439975 0.104607314 -0.01279625 0.0095223095 0.103953324
-0.028218342 -0.0035813227 0.15336023 -0.019839365 -0.035615426 0.08789216 0.052900802 -0.03872145
0.07940101 0.10589816 0.09394169 -0.046634812 -0.04335641 0.0375578 0.059046756 -0.05370334
0.073108405 0.02109223 -0.005732362 0.024167795 0.096210904 -0.022949044 0.04729111 0.0616554
0.1138255 -0.09021273 -0.02657108 0.05283276 0.12125101 0.047537636 0.046238415 -0.014430283
0.029778996 0.045733072 0.014015006 0.074074976 0.23943104 -0.034454416 0.009451421 0.10190759
0.098264314 0.02130788 0.08224016 -0.029852288 0.043273382 -6.79412e-05 -0.0571852 0.1680968
0.028128885 0.011992743 -0.039167866 0.07050706 -0.06626228 0.06703485 0.015809152 0.0020455865
0.16572921 0.21060652 -0.08907005 -0.10947689 0.018726218 0.05152121 -0.014184779 -0.030269794
-0.03267103 -0.04842135 0.07208627 -0.026739655 0.123842545 0.09544314 -0.08302264 0.05285474
0.065756164 0.050643943 0.027775798 -0.033157334 -0.007393464 -0.05662799 0.017389677 0.04634305
-0.01730442 0.046407595 0.0054500983 -0.014978653 0.050940685 0.073804006 -0.052349705 -0.03503823
-0.026179368 -0.032322608 -0.06787436 0.09644046 -0.01716444 0.0065776957 -0.013432287 0.07396323
0.013793235 -0.046270452 0.007329516 0.035591498 -0.06656922 0.14445743 0.014828447 0.026573885
-0.027196316 -0.039702754 -0.03651556 0.034964982 -0.065496355 0.077750295 -0.021252388 -0.020671139
-0.056117807 0.00088187837 0.0835592 -0.06056316 -0.061274234 0.009220465 -0.021354964 0.009833183
-0.13219362 0.0011611173 -0.033180125 0.112741105 -0.02711924 -0.011692193 -0.10016275 0.023010975
0.14785272 0.036307666 -0.021059752 0.019767666 0.03553428 -0.08388593 0.016756082 -0.042202506
0.033802394 -0.04743198 -0.25483134 0.013133127 -0.013136559 0.060879525 0.017053 -0.07058085
0.064805776 0.09826064 0.016966013 -0.029512081 0.1308139 0.12035036 0.084425785 0.1448106
0.14137626 0.0397256 -0.01453218 0.18981792 -0.0035982155 0.07992892 0.09172861 -0.029407127
0.079077415 0.04369519 0.029664649 0.03724461 0.005258768 0.12823117 0.1119312 0.043216284
-0.21042949 -0.07027807 -0.023134049 -0.07453239 0.014008495 0.034767967 0.0002952774 -0.033730887
-0.015362317 -0.031876307 0.15051728 0.040045116 0.05794711 -0.011018153 0.021318594 0.036279432
-0.09591244 0.06502438 0.03484475 -0.03302557 -0.053132046 -0.011106804 0.10507718 -0.061694693
0.04832857 0.0509989 -0.01047942 -0.04684347 0.06721067 -0.06843432 -0.0028513381 -0.05320076
0.005222205 0.029037269 0.038028423 0.045832872 -0.030672424 -0.062519856 0.093678385 0.016679544
0.059512537 -0.069834486 0.053911436 0.0933504 0.09768368 0.03667288 0.104830794 -0.059236743
0.120025955 -0.0037233736 -0.031680636 0.083171874 -0.021345744 0.05292847 -0.032021526 0.011562868
0.034190662 -0.07550095 0.06998692 0.072717845 0.043225516 0.026384374 -0.057040747 0.06377401
00000000: 8f55 8abc bade db3c 353f 563d 8266 323d
00000010: 1be9 593d 5ca2 073d 43dc 6abc 5a66 89bd
00000020: ff16 04bd b3c2 88bd d669 143d a854 90bd
00000030: 3969 323d 4027 b53d 1df2 123d 30e4 e5bd
00000040: 3531 37bc 701f d1bc 2051 dfbc 20aa 1abc
00000050: 5c3c d63d 5da7 51bc 7603 1c3c 7be5 d43d
00000060: 272a e7bc a0b4 6abb 770a 1d3e 2a86 a2bc
00000070: 7be1 11bd ce00 b43d 83ae 583d 629a 1ebd
00000080: ff9c a23d 22e1 d83d 8064 c03d 2504 3fbd
00000090: 7e96 31bd 35d6 193d 03db 713d 09f8 5bbd
000000a0: dcb9 953d 9dc9 ac3c 8ad6 bbbb 8afb c53c
000000b0: 390a c53d a2ff bbbc 53b4 413d 5f8a 7c3d
000000c0: 581d e93d 74c1 b8bd 98ab d9bc 2a67 583d
000000d0: 7352 f83d d3b6 423d 7e64 3d3d fe6c 6cbc
000000e0: 15f3 f33c 9a52 3b3d 329f 653c 9fb4 973d
000000f0: 692d 753e 1320 0dbd 22da 1a3c edb4 d03d
00000100: cd3e c93d dd8d ae3c 876d a83d c98c f4bc
00000110: 6e3f 313d a77b 8eb8 073b 6abd 9121 2c3e
00000120: 8c6e e63c 367d 443c 7c6e 20bd 0166 903d
00000130: 85b4 87bd 9149 893d 3282 813c 3f0f 063b
00000140: ebb4 293e 3ca9 573e 5c6a b6bd 6b35 e0bd
00000150: ba67 993c e807 533d 4667 68bc 5cf8 f7bc
00000160: 0fd2 05bd 7755 46bd f7a1 933d 1f0d dbbc
00000170: 29a1 fd3d b177 c33d c607 aabd 367e 583d
00000180: 2bab 863d 0670 4f3d 128a e33c fccf 07bd
00000190: df44 f2bb c0f2 67bd cc74 8e3c 36d2 3d3d
000001a0: 00c2 8dbc e415 3e3d bd96 b23b 0669 75bc
000001b0: 2ea7 503d 8e26 973d a56c 56bd 3f84 0fbd
000001c0: 1d76 d6bc b664 04bd b601 8bbd 9382 c53d
000001d0: 719c 8cbc b689 d73b 1813 5cbc 097a 973d
000001e0: 05fd 613c 1686 3dbd 702c f03b 64c8 113d
000001f0: 7155 88bd a6ec 133e 04f3 723c 7ab1 d93c
00000200: cfca debc 5b9f 22bd 5791 15bd 7137 0f3d
00000210: f422 86bd 8c3b 9f3d 7d19 aebc 8556 a9bc
00000220: c9db 65bd db2d 673a 1621 ab3d 1311 78bd
00000230: b1fa 7abd 6f11 173c 9bf0 aebc 5c1b 213c
00000240: c45d 07be a230 983a e2e7 07bd cfe4 e63d
00000250: 2b29 debc 9d90 3fbc 2122 cdbd 8381 bc3c
00000260: b466 173e 59b7 143d 8085 acbc cdef a13c
00000270: 658c 113d 63cc abbd 0d44 893c 89dc 2cbd
00000280: 6174 0a3d 0948 42bd 4179 82be 542c 573c
00000290: b93a 57bc cf5c 793d bcb2 8b3c b18c 90bd
000002a0: e4b8 843d e03c c93d 4ffc 8a3c 52c3 f1bc
000002b0: 14f4 053e 407a f63d 6de7 ac3d 3b49 143e
000002c0: f0c4 103e 50b7 223d 6118 6ebc a15f 423e
000002d0: 0ad0 6bbb c6b1 a33d 36dc bb3d 37e7 f0bc
000002e0: 57f3 a13d baf9 323d 4703 f33c ce8d 183d
000002f0: be51 ac3b 084f 033e 2f3c e53d 8f03 313d
00000300: d47a 57be f3ed 8fbd 9e83 bdbc 70a4 98bd
00000310: e383 653c db68 0e3d 76cf 9a39 6629 0abd
00000320: 3ab2 7bbc bb90 02bd 3421 1a3e 5906 243d
00000330: f359 6d3d 7c85 34bc 55a4 ae3c be99 143d
00000340: be6d c4bd 812b 853d 5eb9 0e3d d245 07bd
00000350: fda0 59bd 50f9 35bc b432 d73d 93b3 7cbd
00000360: 2ef4 453d 39e4 503d e0b1 2bbc f0de 3fbd
00000370: bfa5 893d 4b27 8cbd 84dd 3abb 0ae9 59bd
00000380: 081f ab3b 91df ed3c b1c3 1b3d 40bb 3b3d
00000390: bc44 fbbc 690a 80bd 74da bf3d 8aa3 883c
000003a0: 6bc3 733d 6205 8fbd 3dd2 5c3d 7f2e bf3d
000003b0: 620e c83d 4d36 163d 87b1 d63d 3aa2 72bd
000003c0: 2bd0 f53d d803 74bb 8ec3 01bd 0456 aa3d
000003d0: 45dd aebc 86cb 583d 0129 03bd 2f72 3d3c
000003e0: 820b 0c3d 3ea0 9abd 4d55 8f3d 18ed 943d
000003f0: 3d0d 313d 0b24 d83c 8fa3 69bd f39b 823d

weight f4 [3, 256]
-0.037880495 0.045320492 -0.071313344 -0.03317203 -0.014910521 -0.05539098 -0.093634546 0.024065048
-0.031812638 -0.0421449 -0.010154925 0.03177504 -0.059578165 -0.010284173 0.028584277 -0.31408894
0.011980082 -0.05603565 0.0088429 -0.04932754 -0.20964034 0.04795919 -0.5168497 -0.006794981
0.013427249 0.014589529 -0.35143998 -0.0029757828 -0.011009585 -0.1304895 -0.025119867 -0.05913765
-0.027542021 -0.05714034 -0.056284577 0.0068669496 -0.0051156133 -0.028007487 -0.036760207 0.002463947
-0.061638687 -0.027727216 -0.05400742 -0.47213116 -0.19001603 0.017047994 0.010579823 -0.040094502
-0.5446166 -0.028368143 -0.0032037152 -0.074695006 -0.00870341 -0.011185047 0.001748959 -0.0259286
0.034640647 -0.046075504 0.030198716 -0.019387519 0.036434874 0.02900234 -0.0022427526 -0.02521622
-0.06820922 -0.038368367 -0.038077336 -0.062581554 -0.028834395 -0.047259275 0.004990301 0.030247083
-0.06304121 0.052963886 0.038939 -0.060884077 0.039961338 -0.02773384 -0.07960533 0.014495199
-0.07083353 -0.21412458 -0.100193 -0.039903034 -0.01919573 -0.15299046 -0.040312946 -0.0755025
-0.087442115 -0.4054755 -0.07708267 -0.062179726 -0.48104838 0.010169795 0.00075218827 -0.0115971435
-0.04464826 -0.06186635 -0.041458283 0.04363652 -0.53069085 -0.050431777 -0.011666599 -0.05225239
-0.010411454 -0.060982313 -0.00049107213 -0.011234029 0.013794966 -0.014850279 0.040621653 0.025406644
-0.00059998303 -0.009260353 -0.008624484 -0.46831334 0.04875207 0.03995762 0.013386121 -0.46110392
-0.011591035 0.012787748 0.048623182 0.047101114 -0.067006595 0.0020265938 -0.044528108 -0.0029462061
0.030480733 0.022151627 -0.0941053 -0.0034120472 -0.059232913 0.0068701473 -0.046157442 -0.025633667
0.05072429 -0.03560247 0.037544876 -0.07473266 -0.013512088 0.036171075 -0.07970998 0.022950847
-0.05234903 0.043069173 -0.052383672 -0.029472018 -0.03909758 0.012497349 0.047612958 -0.026488433
0.0046054544 -0.021943115 -0.52898204 0.036682766 -0.060431093 0.028529823 -0.024041137 0.04268552
-0.07768617 0.03817271 0.009497458 -0.07968854 0.028354134 -0.079826675 0.005833491 0.032259636
-0.030897226 -0.05552235 -0.0253531 0.009085497 -0.467085 -0.06382014 -0.032364346 0.046467144
0.04112425 -0.5835057 -0.07369572 0.043311074 -0.04909019 0.026273381 -0.011505752 0.0041248812
-0.00946686 0.009434113 -0.07172287 -0.07219403 -0.019231226 -0.06710427 -0.047802843 0.0036830932
-0.006205389 0.021113938 0.0073606404 -0.027914625 0.03643859 0.00961298 -0.04510048 -0.027414624
-0.012277928 -0.020390198 0.026350409 -0.038260907 -0.043308087 0.012695224 0.00663959 -0.0049308036
0.022326997 -0.013179453 -0.074674375 0.034976244 -0.0040763896 0.0035385 -0.06332309 0.021779926
0.009860602 -0.16189818 0.032168005 -0.033720467 -0.06717493 -0.052232314 -0.07881678 -0.013057846
-0.05761583 -0.06715977 -0.022039887 -0.024225922 -0.042817365 0.0050709127 -0.052174747 -0.031229664
-0.054961998 -0.02255975 -0.07262872 -0.0731767 -0.026232673 -0.062496983 -0.03277479 0.022934081
-0.023495644 -0.062075537 -0.021097265 -0.042530976 -0.07117089 -0.005237786 0.04276131 -0.30814347
-0.013367191 0.019973096 -0.5020088 -0.0006686816 0.029904317 -0.08879425 0.03270414 -0.051569212
00000000: 9428 1bbd fba1 393d bb0c 92bd 65df 07bd
00000010: 424b 74bc a7e1 62bd 78c3 bfbd 1024 c53c
00000020: f84d 02bd 21a0 2cbd d860 26bc 8b26 023d
00000030: 3c08 74bd f37e 28bc 9329 ea3c 44d0 a0be
00000040: 1b48 443c a385 65bd d0e1 103c ad0b 4abd
00000050: f5ab 56be db70 443d 4350 04bf 6fa8 debb
00000060: f7fd 5b3c eb08 6f3c f1ef b3be 5a05 43bb
00000070: 8c61 34bc 0a9f 05be 2ec8 cdbc 523a 72bd
00000080: ce9f e1bc fd0b 6abd a88a 66bd 2604 e13b
00000090: e0a0 a7bb f56f e5bc df91 16bd 2c7a 213b
000000a0: d978 7cbd 3024 e3bc e236 5dbd 2dbb f1be
000000b0: 9093 42be 3ca8 8b3c fe56 2d3c 223a 24bd
000000c0: fe6b 0bbf 4f64 e8bc 6cf5 51bb b2f9 98bd
000000d0: bf98 0ebc 7d41 37bc 533d e53a 3768 d4bc
000000e0: 5ae3 0d3d abb9 3cbd 4c63 f73c 93d2 9ebc
000000f0: bc3c 153d 5196 ed3c 25fb 12bb 3f92 cebc
00000100: 47b1 8bbd 2628 1dbd fbf6 1bbd c22a 80bd
00000110: 1c36 ecbc f192 41bd ae85 a33b bbc8 f73c
00000120: c01b 81bd a9f0 583d 807e 1f3d 9561 79bd
00000130: 80ae 233d 1432 e3bc 1f08 a3bd 457d 6d3c
00000140: 2b11 91bd 7943 5bbe fd31 cdbd 5d71 23bd
00000150: 5d40 9dbc 88a9 1cbe 301f 25bd 0ea1 9abd
00000160: da14 b3bd 7c9a cfbe 85dd 9dbd 2bb0 7ebd
00000170: f94b f6be 369f 263c 802e 453a f201 3ebc
00000180: 18e1 36bd 9267 7dbd 29d0 29bd 35bc 323d
00000190: 5bdb 07bf 8d91 4ebd 4325 3fbc 9a06 56bd
000001a0: ce94 2abc 97c8 79bd 4bbb 00ba ef0e 38bc
000001b0: 4804 623c 964e 73bc e462 263d 9821 d03c
000001c0: 2e48 1dba bcb8 17bc b54d 0dbc c4c6 efbe
000001d0: 40b0 473d 9aaa 233d 7651 5b3c d015 ecbe
000001e0: 53e8 3dbc b483 513c 1a29 473d 19ed 403d
000001f0: c13a 89bd 9ad0 043b 1b63 36bd 2315 41bb
00000200: bbb2 f93c 5477 b53c 48ba c0bd a79c 5fbb
00000210: 369e 72bd f91e e13b 960f 3dbd b2fd d1bc
00000220: 46c4 4f3d e5d3 11bd a8c8 193d 700d 99bd
00000230: ce61 5dbc 1f28 143d fc3e a3bd 6a03 bc3c
00000240: f06b 56bd 4d69 303d 4390 56bd 4d6f f1bc
00000250: c924 20bd aec1 4c3c ce05 433d 45fe d8bc
00000260: 5ae9 963b 0cc2 b3bc 5e6b 07bf ab40 163d
00000270: 9886 77bd 60b7 e93c ebf1 c4bc 03d7 2e3d
00000280: ed19 9fbd fd5a 1c3d 3a9b 1b3c bf33 a3bd
00000290: ee46 e83c 2b7c a3bd df26 bf3b ae22 043d
000002a0: 2e1c fdbc 676b 63bd 4eb1 cfbc 56db 143c
000002b0: c425 efbe 22b4 82bd 7a90 04bd 5554 3e3d
000002c0: e771 283d a160 15bf c8ed 96bd f466 313d
000002d0: cc12 49bd 463b d73c 9f82 3cbc 032a 873b
000002e0: e41a 1bbc 8a91 1a3c 71e3 92bd 77da 93bd
000002f0: ce8a 9dbc f76d 89bd eacc 43bd 0d60 713b
00000300: 9356 cbbb 23f7 ac3c 8731 f13b 36ad e4bc
00000310: a240 153d c37f 1d3c 48bb 38bd a294 e0bc
00000320: 5d29 49bc 5809 a7bc d0dc d73c 78b7 1cbd
00000330: d263 31bd a1ff 4f3c eb90 d93b 9492 a1bb
00000340: 1be7 b63c a2ee 57bc e1ee 98bd 4043 0f3d
00000350: 3c93 85bb 2ee6 673b 89af 81bd d16b b23c
00000360: 5d8e 213c a3c8 25be 99c2 033d 791e 0abd
00000370: 0293 89bd 8df1 55bd b16a a1bd 93f0 55bc
00000380: 94fe 6bbd 108b 89bd fe8c b4bc 7175 c6bc
00000390: 4361 2fbd e629 a63b 30b5 55bd 5ad5 ffbc
000003a0: d51f 61bd 3acf b8bc 5ebe 94bd aadd 95bd
000003b0: e7e5 d6bc d6fc 7fbd dc3e 06bd 41e0 bb3c
000003c0: f079 c0bc eb42 7ebd 2cd4 acbc f634 2ebd
000003d0: 0bc2 91bd bca1 abbb 7c26 2f3d fbc4 9dbe
000003e0: 1002 5bbc 9e9e a33c a683 00bf 764a 2fba
000003f0: e6f9 f43c c2d9 b5bd c7f4 053d 3d3a 53bd

bias f4 [3]
0.032813456 -0.054469176 0.014448477
00000000: 6767 063d 121b 5fbd 4eb9 6c3c
